model/id-00000002/model.pt (torch, 221157 bytes, 12 tensors)

weight f4 [100, 135]
000000 33 c2 cc 3c 07 8e ae 3c e7 34 7a 3d 2b 2f 8c bd
       0.024994945 0.021307958 0.061085608 -0.06844934
000010 34 0f 9b 3d 0f f9 a5 bd bd e3 8c bd 47 29 bb 3c
       0.07571259 -0.08104145 -0.06879375 0.022846831
000020 d7 2b 94 3d 61 63 f1 bc 7d e4 7f 3d 78 e2 4f bd
       0.07234924 -0.029466333 0.062473763 -0.050753087
000030 6e 16 e7 bc 2f 01 4c 3d 7f 49 8e 3d df 08 f4 3a
       -0.028208937 0.049805816 0.06947612 0.0018618366
000040 f3 2f 34 bd e0 87 74 3d b5 d7 d8 bc a6 29 83 bd
       -0.04399104 0.059699893 -0.026470045 -0.06404428
000050 32 e3 6a 3c 04 e4 83 bd f0 44 76 bb dc 82 cf 3c
       0.014336394 -0.06439975 -0.003757771 0.025330953
000060 af dc c0 b9 40 bb 26 bd b2 8b 54 bd f1 e5 d8 3b
       -0.00036785516 -0.04070592 -0.051891036 0.006619208
000070 db 23 91 3d 5f c4 9e bd 29 1a 64 bd ce 1a 06 bd
       0.07086917 -0.077522986 -0.05568901 -0.032740407
000080 71 5d 5d 3d 0d 71 9b 3d c3 e5 69 3d 88 cb 60 3d
       0.05404419 0.07589922 0.057103883 0.054881603
000090 ef 4f b8 bc 6b ac ce 3c 7d 48 9d bd f1 0a 34 3d
       -0.022499053 0.0252287 -0.07679842 0.043955747
0000a0 0b 57 f0 bc 8c 12 8f 3d 7c 55 3a bd 72 f4 9b bc
       -0.02933838 0.069859594 -0.04549168 -0.019037459
0000b0 5d ff 98 3d 8d 2d b3 3d 94 df 7e bd 16 32 c6 3d
       0.07470582 0.087489225 -0.06222494 0.09677522
0000c0 c4 34 29 bd 63 19 71 bd 13 7b 2b bd 90 11 96 3d
       -0.041310087 -0.0588621 -0.04186542 0.073275685
0000d0 fd da 95 bc c1 b0 8c bd 19 1f 31 3d 5b 18 1e 3c
       -0.018292898 -0.06869651 0.043242548 0.0096493615
0000e0 07 90 f3 3c 2e 9a 32 bd e7 58 4e 3d 6a c5 98 3b
       0.029731764 -0.04360407 0.050377753 0.0046622055
0000f0 b9 63 11 3d 83 e5 37 3d 66 3b f0 3b 55 62 23 3d
       0.035495494 0.044896614 0.0073312996 0.0398887
000100 c0 4a 7f bd 37 9a a1 3d 5c 30 36 3c fb 5d a7 3c
       -0.062327147 0.07890742 0.011119928 0.020430556
000110 97 71 e6 3d c7 aa 86 3d a8 da 86 bd c1 70 8a 3b
       0.11252134 0.06575542 -0.06584674 0.004224867
000120 65 47 96 3d 05 df 29 3d 4d a3 bd 3c 0f 66 47 3d
       0.07337836 0.041472454 0.023149157 0.048681315
000130 d4 4b 2e 3d e9 36 f3 bc b2 e7 aa 3c 5f e7 7f bd
       0.042552784 -0.02968927 0.020862434 -0.062476512
000140 5b ef 6f bd d7 52 be 3d a8 9b 8b bd fd 96 98 bd
       -0.058577877 0.09293144 -0.068167984 -0.07450674
000150 0d 47 dc 3b ec 10 8e 3d 8a cb 2c bd d4 bf 41 3d
       0.006722337 0.06936821 -0.042186297 0.047302082
000160 3f 14 b1 bb 31 dd b2 b9 03 5f 5c 3c 02 09 e8 bc
       -0.005404025 -0.00034115606 0.013450387 -0.028324608
000170 ab 98 ae 3d a3 4b b3 bc ee d3 bf 3d 3a 96 3b bd
       0.08525213 -0.021886652 0.09366594 -0.045797564
000180 90 ec b3 bd 8e 6f 51 bd 2c 57 97 bd 53 7b 70 bc
       -0.08785355 -0.051131777 -0.073896736 -0.01467784
000190 39 9b 76 bd 3d 7e 72 3c 33 78 6b bd 37 fc 02 bc
       -0.060206626 0.014800605 -0.057487678 -0.007994703
0001a0 f0 63 eb bb ca eb 53 bd f5 a0 99 3c a5 fb a9 3d
       -0.0071835443 -0.051738538 0.018753508 0.082999505
0001b0 c8 3b d1 ba 92 aa 68 bc 40 14 5d 3d 8c 65 87 bd
       -0.0015963251 -0.014200823 0.05397439 -0.066111654
0001c0 8d dd 98 3d 8f 4a 28 bd 8c 48 b0 bd db 47 09 bd
       0.074641325 -0.04108673 -0.08607587 -0.033515792
0001d0 e7 ee a6 3d 9c 2f 95 bd be 76 94 3b 11 de a9 3c
       0.08151036 -0.072844714 0.0045307567 0.020735772
0001e0 7d 7e a1 3d 86 bb 99 3d cc 0f 6e 3d fc fc 5e bd
       0.07885454 0.075064704 0.058120534 -0.054440483
0001f0 42 75 47 bd db b7 73 bd 8a 77 20 3d b5 d9 9b 3d
       -0.04869581 -0.05950151 0.0391765 0.07609884
000200 d7 21 12 3d 74 57 6f bd 64 6e 4e bd 84 07 9d bd
       0.035676803 -0.05843301 -0.050398245 -0.07667449
000210 c3 cc 7b bd 04 66 38 3b 5a 9d c3 3d f5 0d 9d bb
       -0.061474573 0.0028136978 0.09551497 -0.0047929236
000220 e9 c4 9b bd 8d 2d 8b 3d bb e9 5b 3c 26 a7 2a 3d
       -0.07605917 0.067957975 0.013422425 0.04166331
000230 b8 21 4b bd 9f 75 15 3d 69 a0 a0 3d 57 82 e0 3c
       -0.049592704 0.036489125 0.07843096 0.0274059
000240 4a c0 93 3d 2d ab 50 3b 51 82 00 bd 92 fd 80 3d
       0.072144106 0.003184031 -0.03137428 0.06298365
000250 35 7f fb bc 80 b8 ff 3c 6a 75 5c 3d 21 cd 97 bd
       -0.030700305 0.031215906 0.053822912 -0.07412172
000260 85 57 09 bd 4f 9f 33 bd 06 71 22 3d a1 35 e1 3c
       -0.03353073 -0.0438531 0.03965857 0.027491393
000270 cb 23 69 3b 1e 73 17 3d f3 a6 31 bc 14 64 27 bc
       0.0035574313 0.03697502 -0.010843026 -0.010216732
000280 9e 52 85 3d 61 10 bb ba fd 8e 07 3b 6b 74 f9 3c
       0.065098986 -0.0014271849 0.0020684593 0.03045102
000290 da 38 65 3d f5 0f 11 bd 07 93 7b bd 11 6b e4 bc
       0.05596242 -0.03541561 -0.061419513 -0.027883084
0002a0 0d 49 28 3d 5f 33 42 3c c1 c5 66 bd f9 9c a2 bd
       0.04108529 0.011853068 -0.056340937 -0.079400964
0002b0 46 fd 4a 3d 53 bc 85 3d e4 49 b4 bc 92 e1 81 bd
       0.049557947 0.065300606 -0.02200789 -0.06341852
0002c0 2e 11 b4 bd 26 9e ad bd b8 b4 97 3d 2d 49 61 bd
       -0.08792339 -0.0847743 0.07407516 -0.055001426
0002d0 94 db b5 bc e4 1f b9 bb 7b 0e 93 3d 7e 10 a7 bd
       -0.02219943 -0.0056495536 0.07180496 -0.081574425
0002e0 61 f1 3d 3d f0 7b 6b 3d 58 a2 8f bd 45 89 c3 3b
       0.046372775 0.057491243 -0.070133865 0.0059672915
0002f0 86 c1 8c bd e7 38 38 3b 67 55 93 bd fd ea 82 3d
       -0.06872849 0.0028110088 -0.071940236 0.06392477
000300 8c 17 ad bc f9 4f 9c bd 4b 8b 37 3b 23 86 f3 3c
       -0.021129392 -0.07632441 0.002800661 0.029727047
000310 35 4b 31 3d f9 d3 21 3d 7a 82 86 3d dd 0f 97 bd
       0.043284614 0.039508794 0.06567855 -0.073760726
000320 97 3c 8b 3d 32 0e 0d 3d 25 35 2a bd eb dc 70 3c
       0.06798666 0.034437366 -0.04155459 0.014701108
000330 99 69 9c 3d e6 80 44 3c 11 2b 07 bc 3b b3 5b 3d
       0.07637329 0.011993622 -0.008250014 0.053637724
000340 cc 26 3b bd 49 17 46 3d 70 77 19 bc 6d a9 46 3d
       -0.045691296 0.04836205 -0.009366855 0.04850142
000350 6e 56 50 bd 6d dc c5 3b a1 37 71 3d ea 07 4f bd
       -0.050863676 0.0060382397 0.058890942 -0.050544657
000360 62 dd 0a 3d 32 59 07 3d 8f 5f 85 bd 95 20 95 bd
       0.033902533 0.033044048 -0.06512367 -0.07281605
000370 ad 39 92 bd be 65 3a 3b c2 f5 9c 3d f5 bf 79 bd
       -0.07139907 0.002844199 0.07664062 -0.06097408
000380 74 de 9c 3c 52 d1 14 3d f7 60 92 bc 36 ec a7 bd
       0.019149043 0.036332436 -0.017868502 -0.081993505
000390 30 ab 1b 3d 54 8a ab 3c 7f af 8a 3a 1d 04 8c bd
       0.038005054 0.020939983 0.0010580866 -0.06836722
0003a0 db b9 42 bd b5 69 6e 3c 18 4c 9c bd de 0f 84 bd
       -0.047540527 0.01455157 -0.07631701 -0.06448339
0003b0 af 95 19 3d aa 9c 9d 3d e1 cd 01 bd 7a 93 7a bd
       0.037496265 0.07695897 -0.031690482 -0.0611758
0003c0 31 e9 9d bc b7 e0 ff bc 98 c1 62 bc 95 69 89 3d
       -0.019276233 -0.031235082 -0.013840102 0.06709591
0003d0 81 23 f9 bc 39 ab 11 bd 5c b9 52 3c 5d a6 46 3d
       -0.030412437 -0.03556368 0.012861576 0.0484985
0003e0 d0 16 83 3d ab a4 56 3c 24 1f 5e 3d 0d 95 0c 3d
       0.064008355 0.013100783 0.054228917 0.034321833
0003f0 8b 39 8e bd 8a bb 84 3c 35 74 b3 bd 1f 0a d1 3b
       -0.06944569 0.016202707 -0.08762399 0.0063793804

bias f4 [100]
000000 97 ed ef 3c 7b 06 98 bd d9 9b 52 bd 7b 9d 52 bc
       0.029288096 -0.07423111 -0.05141816 -0.012854929
000010 0a e5 97 3c ff 51 87 3d 20 37 a5 3c df 21 5f 3d
       0.018541832 0.066074364 0.020167887 0.05447566
000020 04 c6 a5 bd 9e 82 51 bc 9c 9e a3 3c ec 42 cd 3c
       -0.08094409 -0.012787489 0.019973092 0.025056325
000030 3c 14 14 bd 6d 44 33 bc 27 f6 cc 3b 86 f6 23 bc
       -0.03615211 -0.010941607 0.0062549296 -0.010007506
000040 d3 c5 4e 3d 86 47 1e 3d 43 1e e6 3c 9c cf 8b bd
       0.05048163 0.03864243 0.028090602 -0.06826708
000050 33 92 86 3d d6 20 0b 3d 94 dc fa bc 95 9e bf bb
       0.06570854 0.03396686 -0.030622758 -0.005847762
000060 fe c2 87 bd 78 b3 c4 ba 86 6f 18 bc 66 5d 75 bd
       -0.06628989 -0.0015007099 -0.009303933 -0.059903525
000070 f0 90 0e 3d c8 aa 70 3d f6 bb 41 3d 5d 95 95 3c
       0.034806192 0.05875662 0.047298394 0.018259699
000080 5b 8a d1 3b 66 71 aa 3d cf 88 8e 3d 04 db a4 bc
       0.006394667 0.0832241 0.06959688 -0.020123966
000090 1f 79 45 bd 56 d1 d2 bc 72 fe 27 3c c7 c0 b0 bd
       -0.048211213 -0.025734585 0.010253536 -0.08630519
0000a0 c2 23 b6 3d 44 d0 19 bc 4e ac 55 bd be c6 69 bd
       0.08893539 -0.009388033 -0.052166276 -0.0570743
0000b0 68 d6 94 3d bc c5 86 bd 11 87 aa bd 1c a2 cb 3b
       0.07267457 -0.065806836 -0.08326543 0.0062143933
0000c0 ec da 36 3d 5f 59 77 bc 8b 61 44 bc af 4f 10 bd
       0.044642374 -0.015096991 -0.011986147 -0.035232242
0000d0 22 21 39 bd 58 95 0a bd 9d 01 84 bd c7 3e 82 3d
       -0.045197614 -0.03383383 -0.0644562 0.0635963
0000e0 ff c4 99 3d 98 d0 0b 3c 75 04 37 bd 1e a2 ad bd
       0.07508277 0.008533619 -0.044681985 -0.08478187
0000f0 7e ba 81 3d 46 5d 47 bd 8e 3e 9c bc 70 89 0b 3d
       0.06334399 -0.048672937 -0.019072797 0.034066617
000100 58 f2 5d 3d d3 e9 42 bd 76 60 f8 3c 1d 1f d8 bb
       0.054186195 -0.047586273 0.030319434 -0.006595506
000110 74 e9 5f 3d 9f e8 3f bd f1 c4 13 3c 8a 3a 49 3d
       0.054665998 -0.046852704 0.009019122 0.049128093
000120 dc 5d a8 bd 80 f2 4c 3c 06 c6 df bc 8d 84 70 3d
       -0.08221027 0.012508988 -0.027316105 0.05872016
000130 94 aa 1a 3d 6f 02 90 bd 85 1b a7 3d 76 50 da bc
       0.037760332 -0.07031714 0.08159546 -0.026649695
000140 40 80 29 3d 0e 37 13 bd 4e 6a 5b bc df 88 6a 3d
       0.041382074 -0.035941176 -0.013392044 0.057259437
000150 99 bd 92 3d c2 11 6e 3c e6 01 02 bd 4a 67 86 bc
       0.07165069 0.014530601 -0.03174009 -0.016406674
000160 0d 34 9f bd dd 53 5f 3d bd ef a8 bd d0 15 19 3c
       -0.077736 0.054523338 -0.082488514 0.009343579
000170 71 1a d3 3b f9 e6 37 bc a3 8b 4a 3d 8a 7c 51 3d
       0.006442361 -0.011224502 0.049449574 0.05114416
000180 7d 21 56 3d ab 09 62 3d a2 e0 df 3c 02 94 12 3d
       0.05227803 0.055185 0.027328793 0.035785682

weight f4 [100, 100]
000000 ec 72 f6 bc 09 32 65 bd 22 3f 54 3d c8 a5 09 3e
       -0.030084096 -0.05595592 0.05181802 0.13442147
000010 6d 59 4d bd bf f0 80 bd 3a 55 ae 3d 4d 7d bc bd
       -0.05013411 -0.06295919 0.085123494 -0.09203587
000020 a4 7a d5 3d 58 2b 90 bd 1b 22 96 bd f5 ab 93 bb
       0.104237825 -0.07039517 -0.07330724 -0.004506583
000030 cb 03 66 3d e1 66 c7 bd 59 4f aa 3d 17 92 b1 bd
       0.05615596 -0.097364195 0.083159156 -0.086704426
000040 5e 66 55 bd 0f 3d 31 bd 57 de 00 3e c0 24 e3 bc
       -0.052099578 -0.04327112 0.12584816 -0.027727485
000050 1a d4 60 3d 1a 17 ea 3d f2 52 af bd db 79 32 bd
       0.054889776 0.114301875 -0.085607424 -0.04357324
000060 48 55 b3 bb 53 11 2a 3c 19 70 75 bd 10 b0 55 bd
       -0.005472813 0.010380107 -0.059921358 -0.05216986
000070 0b f9 02 bb 6f be 84 3d 79 46 ca bd 82 ce 93 3d
       -0.0019984867 0.06481635 -0.09876723 0.072171226
000080 e0 55 6b 3d 48 fc a7 bb 0b 01 94 3c c3 86 fa bd
       0.057454944 -0.00512651 0.018066904 -0.12232735
000090 95 5a fa 3c 06 f3 80 bd bc 66 c4 bd 5d 5a c2 bc
       0.030560771 -0.06296353 -0.095899075 -0.02372473
0000a0 a5 b7 b8 bd 24 a3 60 bd 17 b9 b0 bd 3e 76 9d bd
       -0.090194024 -0.054843083 -0.08629053 -0.076885685
0000b0 de c1 fa bc 2e 3b 25 3d 19 71 3b 3d 80 8a 75 bc
       -0.030610021 0.04033964 0.045762155 -0.014986634
0000c0 ee 73 7f 3b 00 f7 29 3d d5 ed b6 3d 1d a8 af 3d
       0.0038979012 0.041495323 0.089320816 0.08576987
0000d0 ee 04 96 bc 55 b2 70 3a a1 f9 cf bc 10 25 7c bd
       -0.018312898 0.0009181847 -0.025387587 -0.061558783
0000e0 23 54 31 3d fb 2d e2 3b 49 3b af bd 51 e2 72 3d
       0.04329313 0.006902454 -0.085562296 0.059297863
0000f0 d0 7b 8a 3d d9 a8 bf bd ec 6a a1 bd 03 fd 9d bc
       0.067618966 -0.09358377 -0.07881722 -0.019285684
000100 3f c8 84 bd 7e 74 9e 3d a2 c3 99 3d db bb 9a 3c
       -0.064835064 0.07737063 0.07508017 0.018888405
000110 9f d2 15 bc 22 af a9 bd 15 c7 cd 3c e2 1c 85 3d
       -0.009144454 -0.08285357 0.025119344 0.064996496
000120 81 93 b8 3d b2 eb cc 3c c1 7d fc 3c fc 06 70 bc
       0.09012509 0.025014732 0.030821683 -0.014650103
000130 68 b9 c5 3d d9 75 c1 bd 85 c4 9f bc 44 0f 79 bd
       0.09654504 -0.09446306 -0.019502888 -0.060805574
000140 ff 10 4f bd 54 27 d0 3d a7 bc 9f bd a0 6d d7 bd
       -0.050553318 0.10163751 -0.077996545 -0.10518956
000150 1a ac 0f 3d 6f ed 92 3d d5 02 bb 3c 48 8a 2a bd
       0.03507624 0.07174193 0.022828499 -0.04163578
000160 ec 0f aa 3d ba 39 5e bd 9e 3a aa bd df a2 ac 3d
       0.08303818 -0.05425427 -0.083119616 0.08429503
000170 8b bf bc bc 45 e6 d8 3d 36 63 d8 3d e8 b6 88 3d
       -0.023040554 0.105907954 0.10565798 0.066755116
000180 83 7b 91 3d 77 c3 0f bd 46 f1 6e 3d 13 a0 b0 3d
       0.07103636 -0.03509852 0.058335565 0.08624282
000190 37 3c 6a 3d 79 cb 44 bd a5 c7 6b 3c 75 d5 57 bb
       0.05718633 -0.04804561 0.014390861 -0.0032933627
0001a0 49 4e 20 3d 52 44 24 bd b2 18 91 bc 1f df 14 3d
       0.03913716 -0.040104218 -0.017711971 0.036345597
0001b0 a9 8c 02 3d b3 df 4e 3c 2e 32 2b bc ee f5 e6 3d
       0.031872425 0.012626576 -0.0104489755 0.11277376
0001c0 4d 6e c2 bc 7d a9 88 bd 10 d3 3f bc 00 87 75 bd
       -0.023734236 -0.06672952 -0.011708036 -0.0599432
0001d0 53 c6 50 3d b9 5e a0 3d 3d 67 c8 3d 4b b8 ac bd
       0.050970387 0.07830567 0.09785316 -0.084335886
0001e0 14 37 b8 3c 8c 39 83 3c cc 02 19 3d 0a 7b e6 bd
       0.0224872 0.016018651 0.037356183 -0.112539366
0001f0 08 50 79 3d 19 c2 a2 bb 0d a2 1b bd a2 3d c1 bc
       0.06086734 -0.004966986 -0.03799634 -0.02358896
000200 c5 7a 87 3d 72 b2 8c bd 15 e5 ad 3d 89 19 c5 bd
       0.06615213 -0.06869973 0.084909596 -0.09624011
000210 62 7e 6d bd e4 28 3a bc 96 1a 7c bd 42 02 fd bd
       -0.057981856 -0.011362288 -0.06154879 -0.12353946
000220 55 f6 ee bd 7a 11 9b 3d f1 ef e0 bd e4 c4 51 bd
       -0.11668078 0.07571693 -0.10983265 -0.05121316
000230 9c 73 48 bc 63 84 9f 3d 06 0d 5d bd bb 62 08 3d
       -0.012234595 0.07788923 -0.0539675 0.03329728
000240 cf 50 6d 3d db 5c e3 bd 3f 29 a1 3d 20 0e ee bc
       0.057938393 -0.11101695 0.07869195 -0.02905947
000250 8d 04 9a bd f8 49 88 bd 75 c8 16 bc 18 7c 75 bd
       -0.07520399 -0.066547334 -0.009203066 -0.0599328
000260 79 57 b6 3c 60 e4 00 3d 48 8b d4 3b 4d ba b9 bb
       0.022258507 0.031467795 0.00648633 -0.0056679607
000270 29 da 6e bd 2f 01 c9 b9 92 03 44 3c 1a 5c 97 bd
       -0.058313522 -0.0003833859 0.011963742 -0.07390614
000280 55 c9 b4 3d 92 d2 cf bd 47 3c b8 bd 80 29 60 3c
       0.088274635 -0.10147585 -0.08995872 0.013681769
000290 36 b4 85 3b e0 da c6 3c cf e8 38 3c 4e a5 4d bd
       0.0040803207 0.02427429 0.011285975 -0.050206475
0002a0 5a 0b 9f bc a6 bf cf bd 6b fa d3 3d fa b7 a2 bd
       -0.019414593 -0.10143976 0.10350498 -0.07945247
0002b0 94 d1 34 3d 9c 8c a5 3d 67 29 18 bd 79 c8 78 3d
       0.04414518 0.0808346 -0.03714886 0.06073806
0002c0 af b1 f5 3d f7 46 07 3d 30 51 07 bd 1c 52 b0 3c
       0.11996781 0.03302666 -0.03303641 0.021523528
0002d0 ba 25 86 3d a6 be 22 3d ce 6f df 3c cc 9b d1 bd
       0.065501645 0.039732598 0.027274992 -0.10234794
0002e0 37 4a 92 bd 2c 7b a6 bd 07 8e d4 ba 02 06 93 bd
       -0.071430616 -0.08128962 -0.0016216644 -0.0717888
0002f0 5b a8 33 3d a5 78 ff 3c f6 85 5b bd 72 2d bb bd
       0.04386173 0.031185457 -0.053594552 -0.091395274
000300 06 c1 af bd 8d d1 15 bd 26 b8 63 3d e9 5c 84 bd
       -0.08581738 -0.036576796 0.05559554 -0.06463034
000310 d7 00 8c 3d 3f 68 82 3d ba 2b 5b bd 73 87 55 bd
       0.06836098 0.063675396 -0.053508498 -0.052131128
000320 df b2 05 bc ce 9d 48 3d 9c c4 62 bd 7b 87 b6 bc
       -0.008160322 0.04897862 -0.055363283 -0.022281399
000330 ec 5e 54 bd 83 a5 f4 3c a3 c0 ae 3d 51 f9 dc bc
       -0.051848337 0.029864078 0.08532836 -0.026974352
000340 53 96 8b bd f8 a3 c9 bd 0d 57 25 bd 22 79 5b 3d
       -0.068157814 -0.09845728 -0.04036622 0.053582318
000350 1c 35 b0 bd c1 af de 3b 16 3a c3 bd 2d 71 b6 bd
       -0.0860388 0.006795854 -0.095325634 -0.08908305
000360 47 bf 8b 3d 68 ef 95 bd 67 61 2c 3c 1f 70 80 bd
       0.06823593 -0.07321054 0.010521269 -0.062713854
000370 22 55 52 3c 4a ed 21 bb d9 8a 10 bd 96 13 53 bd
       0.01283768 -0.0024708086 -0.035288665 -0.05153235
000380 38 51 c5 3d f1 09 0e bc 5b ca b2 bb 6f c3 34 bc
       0.09634632 -0.008669362 -0.0054562516 -0.011032923
000390 ea f8 8d 3d 68 e1 20 3d 74 08 e0 bc df 4b bd bd
       0.06932242 0.039277464 -0.02734778 -0.09242987
0003a0 c6 65 9b 3d 40 df 44 3d da 60 8a 3b 66 74 e1 3b
       0.07587771 0.04806447 0.0042229714 0.006880331
0003b0 9b 01 3e bd d7 95 a8 3d 79 e0 e4 bc 01 5d a1 bd
       -0.04638825 0.08231705 -0.027939068 -0.07879067
0003c0 cc 56 b7 bd b8 02 55 3d 28 b6 6f bd dc 3a b2 3d
       -0.08952102 0.052004546 -0.058523327 0.08702633
0003d0 7e e3 02 bc a6 ad 3b 3d 60 eb 9f bd d0 2e f9 bc
       -0.007988809 0.0458199 -0.07808566 -0.03041783
0003e0 74 de 3a 3d 49 f7 9b 3d 5f cf 91 bd 00 97 37 bc
       0.045622304 0.07615525 -0.07119631 -0.011205435
0003f0 80 1f 26 bd 38 a2 cf bd b3 e4 b2 3d 68 89 7d bb
       -0.040557384 -0.10138363 0.08735027 -0.0038686637

bias f4 [100]
000000 84 7a 9b bd a8 4d 83 bd e9 6d 8b 3c fd b8 6e 3d
       -0.075917274 -0.06411296 0.017020183 0.058281887
000010 c7 dc 2e bc fa b2 a0 bd 29 5d 4b bd b0 52 92 3d
       -0.010672755 -0.07846637 -0.04964939 0.07144678
000020 a8 ea a7 bd fe ce 4b bd 2c 07 d7 bc 39 1d 1b 3d
       -0.08199054 -0.04975795 -0.026248537 0.037869666
000030 36 30 58 3d 46 28 b9 3d 92 65 c1 bc 0f ba 83 3d
       0.052780353 0.09040885 -0.023608003 0.06431972
000040 7a f5 fd bb 44 f4 81 3d 0a 74 c2 3c bd ca 67 3d
       -0.0077502104 0.06345418 0.023736972 0.05658983
000050 94 ed 2a 3d 12 8d c0 3d bd ab e3 3c 4f b1 f7 3c
       0.04173048 0.09401907 0.027791852 0.030235915
000060 2f 23 bf bb 48 06 29 bd e1 0b 47 3c 5f a5 b7 bc
       -0.0058330516 -0.041265756 0.012148828 -0.022417722
000070 0c a6 bc bd ed 05 12 bd 1e 8a ef bc cb a5 03 3d
       -0.092113584 -0.035650183 -0.029240664 0.032140534
000080 8f 16 24 3c cb eb 7f 3d 93 ed 15 bd 0e 4f b3 bd
       0.010015144 0.06248073 -0.03660352 -0.08755313
000090 41 01 8f 3c 95 cb 13 bd 91 95 ba bd 4c c5 6e bd
       0.017456653 -0.036082823 -0.09110559 -0.058293626
0000a0 ae 21 a1 3d 71 ff ba bd c8 0c be 3b ae 68 bf bd
       0.07867752 -0.09130753 0.0057998635 -0.09346138
0000b0 57 27 2f 3d a3 90 03 bd 39 bb 4d 3d be 84 88 3d
       0.042762127 -0.03212036 0.050227378 0.066659436
0000c0 d9 56 8a 3d 0b 48 69 3d 99 50 7e bd 3f 58 5c 3c
       0.06754846 0.05695347 -0.062088583 0.013448774
0000d0 39 f1 c5 3c 26 70 69 bd 14 96 b7 3d 78 79 3f 3d
       0.024162875 -0.05699172 0.08964172 0.0467467
0000e0 86 b4 9e bd 9e c8 81 bd 5c 2c b7 bc 6d 7a 61 3d
       -0.07749276 -0.06337093 -0.02236002 0.055048395
0000f0 2d 30 9f 3d 02 1d fc 3c 17 16 07 bd fc 08 88 3d
       0.07772861 0.03077555 -0.03298005 0.06642339
000100 0d b6 a4 bd 66 15 ce bc 0f 09 a8 bd e8 38 c2 bd
       -0.08042536 -0.025156688 -0.08204853 -0.0948351
000110 3e ff a7 bb a7 e3 54 bd 86 73 0e 3d e8 35 c0 3d
       -0.005126863 -0.05197492 0.03477814 0.09385282
000120 a9 01 33 bd cc e7 82 3d 51 33 cd 3d 4b dd 9f bb
       -0.043702755 0.06391868 0.100195535 -0.004878675
000130 26 66 19 3d 7c 62 bb 3c 95 3b 96 3c 3c b3 b4 bd
       0.037450932 0.02287411 0.018338958 -0.08823249
000140 02 db 40 3d b0 84 23 3d 19 24 6a 3d 1b 27 b5 bc
       0.047083862 0.039921463 0.05716333 -0.022113374
000150 2c 0c 9c 3c 48 ff 8c bb e2 48 d5 bc 2f 6e 6c bd
       0.019048773 -0.004302893 -0.02603573 -0.057722267
000160 09 5c 33 bd ec 04 e1 3b 0a 15 b7 3d d5 1d de bc
       -0.043788943 0.006867042 0.0893956 -0.027113834
000170 56 f9 ab 3d 19 a9 c3 3d 6c a0 8e 3d 7c 1e a1 bd
       0.083971664 0.09553737 0.06964192 -0.078671426
000180 63 ca 97 bd 9b b5 c3 bd b0 28 6e 3d 8b 8c cb 3c
       -0.07411649 -0.09556123 0.05814427 0.02484729

weight f4 [100, 100]
000000 0b 94 94 bd 24 e5 91 3c b3 8e 46 bd 59 7e 20 3d
       -0.072547995 0.017809458 -0.048475932 0.039182995
000010 42 ad 80 b9 9e a4 97 3d 14 cb c9 3d db 38 c2 3d
       -0.0002454315 0.07404445 0.09853187 0.094835006
000020 4a 3a 5f 3d db 3d 79 bd c9 8c 8d 3d 09 c1 41 ba
       0.05449895 -0.060850006 0.06911618 -0.000739113
000030 98 eb 0d bc ad 80 4f bd 73 87 9f 3d a5 54 07 3d
       -0.008662127 -0.050659824 0.07789507 0.033039708
000040 e5 56 06 3d a8 49 9e 3d cf 48 7d bd 41 e1 26 3d
       0.032797713 0.077288926 -0.061837014 0.040742163
000050 ae 12 94 bd b6 2b ea bc 7b ac 3b 3d a3 30 b7 bc
       -0.07230125 -0.028585296 0.045818787 -0.022362059
000060 b7 bc 93 bd 88 4a 0e bc ba 56 80 bd 8c 14 1d bd
       -0.07213729 -0.008684762 -0.06266542 -0.038349673
000070 df 7f 07 bd 61 20 dc 3b 37 b6 8c bd 70 33 87 bd
       -0.03308093 0.006717727 -0.06870692 -0.06601608
000080 07 de bd 3d d9 d7 8a bd f4 4c a6 bd fd 55 fa bc
       0.09270864 -0.06779451 -0.081201464 -0.03055858
000090 dc b1 54 bd d3 d9 7a 3b 3d 56 b4 bd 91 7b 2d 3d
       -0.051927432 0.0038276806 -0.08805511 0.04235417
0000a0 77 7e 3e 3d 9c f9 c9 bd 58 e4 f4 3c d0 ae 42 3d
       0.046507325 -0.09862062 0.029894039 0.047529995
0000b0 a2 06 c4 3d 75 35 b5 bd 8c 49 19 3c 28 f4 49 bd
       0.095715776 -0.08848087 0.009355914 -0.04930511
0000c0 a9 fe aa 3b 4d 4b 31 3d 7a f8 35 3d 27 3c 83 bd
       0.005218346 0.043284703 0.04442642 -0.064079575
0000d0 af cb a1 3d cc ee c1 3d 18 f8 c9 bc 98 ef c4 3d
       0.07900178 0.09469375 -0.024654433 0.096160114
0000e0 c1 5e 2f bd 24 10 a7 bb 07 01 7e 3d 2c 33 9c 3b
       -0.042814974 -0.0050983597 0.0620127 0.0047668424
0000f0 37 97 dd 3c 2c ef 67 bd 5a 71 25 3d 8e 76 64 bd
       0.027049644 -0.056624576 0.040391304 -0.055777125
000100 fd 0d ce 3d 01 b6 4c bc 0a ac 38 bd 2c 64 bc bc
       0.10061262 -0.012494565 -0.045085944 -0.022996984
000110 c3 ff 17 3d 9d 09 f0 bb c8 46 fd 3b 93 4d 92 bd
       0.037109148 -0.0073253647 0.007729385 -0.07143702
000120 10 dd c3 3c b9 62 ab bd f4 9e cc 3a f2 89 a6 bd
       0.023909122 -0.08368439 0.0015611337 -0.0813178
000130 0c 00 87 bd 05 35 84 bb 1b d0 cc bd cf 28 27 bc
       -0.06591806 -0.0040346407 -0.100006305 -0.010202601
000140 72 b9 4b 3c 79 e8 0f 3c c2 90 a7 3d 49 c7 74 3d
       0.01243435 0.008783453 0.08181907 0.059760366
000150 42 d0 b5 3d f6 b6 7c bc a1 89 23 3d 91 6c 8e 3d
       0.08877613 -0.015424481 0.039926175 0.06954301
000160 7e 8d 64 bd e5 5c 53 bd 30 f8 9b bd 5b cc 4e bd
       -0.055799 -0.051602263 -0.076156974 -0.050487857
000170 1b f4 3c bc 99 37 1c bd 49 e3 15 3c 43 f9 7f 3d
       -0.011532809 -0.03813896 0.009148427 0.062493574
000180 dc 5a 59 3d 09 4d ca bc f0 65 29 3d 80 eb b5 bb
       0.053065166 -0.024694936 0.04135698 -0.0055517554
000190 e7 29 d5 3d ac af bb 3d 06 81 95 bd b8 eb 82 3d
       0.10408383 0.09164366 -0.073 0.06392616
0001a0 ff e7 39 3d d8 49 52 3a 53 a6 d7 bc 5f 51 84 3d
       0.045387264 0.0008021868 -0.026324427 0.06460833
0001b0 85 7c 02 3d 7d 81 9e 3c aa 21 05 bd f3 8b bd bd
       0.031857032 0.019348854 -0.032502808 -0.09255209
0001c0 90 78 87 3d f1 dc 06 bd f7 17 4f 3c dd 5a 9c 3d
       0.06614792 -0.03292555 0.012639991 0.07634518
0001d0 8a ce 2d bd 5e db 99 bd a8 30 a0 3d db 1c 33 bd
       -0.0424333 -0.07512544 0.078217804 -0.04372869
0001e0 ad 51 68 3d 9a cc 04 bd ff 5f 00 bd cf c0 1b 3d
       0.056718517 -0.032421686 -0.03134155 0.038025673
0001f0 48 c6 8c 3b a5 17 3c 3d 64 16 5a 3d 88 5e 87 3c
       0.004296098 0.045920987 0.05324401 0.016524568
000200 b1 70 9d 3d b4 db bb 3d a7 ea b4 3b 57 a4 7d bd
       0.0768751 0.091727644 0.005521137 -0.061924305
000210 76 a3 17 3c dd 1c eb bc 6c a4 98 3d ff 1e 7b 3c
       0.009255281 -0.028700287 0.07453236 0.015327214
000220 96 73 35 3c f5 a0 b2 bc 2f c8 34 bd 82 ac be 3c
       0.011074921 -0.021805266 -0.044136222 0.023275618
000230 5f 5c e1 3c 59 5c 43 3d ab da 82 bd 14 e6 cf 3c
       0.027509866 0.04769549 -0.06389364 0.025378264
000240 4b 75 89 bd aa 79 b3 3d 5b 16 95 3d 9e 5f 2d bc
       -0.06711825 0.0876344 0.072796546 -0.010581879
000250 5b 45 e7 3c 76 51 b6 bd 73 dc 8f bd 93 56 c8 3c
       0.028231313 -0.08902256 -0.07024469 0.024455344
000260 e3 f8 0c bd f4 8e a1 bb e3 03 c4 3c af 3e c9 3d
       -0.034417044 -0.0049303714 0.023927635 0.09826409
000270 8e ab c4 3b 50 c1 9c bd ed 7b 89 bd 78 7d 9b 3d
       0.006001896 -0.07654059 -0.0671309 0.07592291
000280 e6 53 94 3d 1e 42 ad 3c f5 03 4d bd 0b 46 b1 bd
       0.07242565 0.021149691 -0.0500526 -0.08655938
000290 8c 32 96 bd 72 e8 79 bd 45 96 1e bc 27 70 9c bd
       -0.0733386 -0.061012693 -0.009679382 -0.07638579
0002a0 32 9d 1f bb a9 1b bb bd e5 e5 82 3c 28 69 30 3c
       -0.002435517 -0.09136135 0.015978763 0.010767259
0002b0 63 23 a6 bc 3c 5a 43 3d c1 37 66 bd 32 7c 1e 3d
       -0.020280546 0.047693476 -0.056205515 0.03869266
0002c0 43 d8 20 3c cc 48 d0 bd cb e9 aa bd 9c db 86 bd
       0.009817186 -0.10170135 -0.08345374 -0.06584856
0002d0 86 77 88 39 a4 fa af bc de 50 14 bd 13 f0 c1 3d
       0.00026028993 -0.02148182 -0.036209933 0.09469619
0002e0 11 22 e0 3c 40 27 aa 3d bb 50 90 bd 59 40 ac bd
       0.027359994 0.083082676 -0.07046648 -0.08410711
0002f0 92 a9 c4 3d 90 16 82 3d ff f8 83 bd 7d 7b 98 bd
       0.096026555 0.0635196 -0.064439766 -0.074454285
000300 b1 0c df bb 8e 82 eb bc 61 fe 39 3d c4 63 85 bd
       -0.006806933 -0.028748777 0.04540861 -0.065131694
000310 82 25 45 bd 32 6a 32 3d 4e e9 aa 3d 6f 2f 57 bd
       -0.048131473 0.043558307 0.083452806 -0.05253547
000320 6c 93 28 3d 4b 00 96 3d 0d 73 19 bc 72 91 6f bc
       0.041156217 0.07324275 -0.009365809 -0.014622079
000330 64 e0 9b 3c 1d c5 87 bd 12 47 ab bd 20 47 21 bc
       0.019027896 -0.06629393 -0.08363165 -0.009843618
000340 d3 1a 31 bd c9 a9 80 3c 96 e2 89 3d 49 94 10 bd
       -0.043238472 0.01570596 0.06732671 -0.035297666
000350 cf 44 07 bc 07 3b 88 bd d5 2b 61 bd fc 2a 0f 3d
       -0.008256151 -0.066518836 -0.054973442 0.034953102
000360 46 b6 12 3d 80 39 42 bd d5 2e 99 bc af d3 71 3d
       0.03581836 -0.047418118 -0.018699089 0.059039768
000370 e1 97 71 bd 19 6e ac 3b 2b 5b e0 3c 8f 4b 67 3c
       -0.058982734 0.005262148 0.027387222 0.014117136
000380 8d 68 8d bd 06 47 f6 bc b6 89 da bc 3f a0 84 bd
       -0.06904707 -0.030063163 -0.026676994 -0.06475877
000390 4e c2 a6 bd 10 ee c9 3d cb dc d6 3a ef 69 a0 3c
       -0.081425294 0.0985986 0.0016392706 0.019581763
0003a0 94 86 9a bd df ff 8e bb 08 79 be bd f9 3c 4a 3d
       -0.075452 -0.0043639983 -0.09300429 0.049374554
0003b0 7b 82 58 3d 0b aa 2f bd c8 da ba bc 26 01 b8 3d
       0.05285881 -0.042886775 -0.022809401 0.08984594
0003c0 8e 83 ac 3c 0a 5c 15 3d 5b 5e b4 bd 5e d6 cd bc
       0.021058824 0.03646473 -0.088070594 -0.025126632
0003d0 d0 7d aa bd fd c1 93 3d 4e 14 ac 3d 6a 18 6d bd
       -0.08324778 0.07214735 0.0840231 -0.05788461
0003e0 c9 f9 1a bd b1 ea 24 3d 68 ed c2 3c e2 ec 75 3d
       -0.03783587 0.04026288 0.023794845 0.060040362
0003f0 23 a9 9a bd 3f 52 02 bd 4f c4 09 3d 96 27 1c 3c
       -0.075517915 -0.031816717 0.03363448 0.009530922

bias f4 [100]
000000 ad 46 75 bd 7f 1b 60 3d 01 7f 54 bd 14 b3 3e 3d
       -0.059881855 0.054713722 -0.051878933 0.0465575
000010 92 b2 a7 bd 8f 94 85 bd c9 c9 23 bc 78 c2 0a bd
       -0.081883565 -0.06522476 -0.00999684 -0.033876866
000020 c5 1b e9 bc 91 c8 47 bd 00 c5 47 3d 0a 70 b1 bd
       -0.028455624 -0.04877526 0.04877186 -0.08663948
000030 38 f3 d5 3b 6a 9f 0c bd d4 00 93 bd 8e 59 cb bd
       0.006529238 -0.034331717 -0.07177892 -0.099291906
000040 89 df 15 3d 76 01 a5 bc 1d da 31 bd e2 9f c6 bc
       0.036590133 -0.020142298 -0.0434209 -0.02424616
000050 93 58 aa bc ac 4a 9f bd 27 73 44 3d 3a 50 a0 bd
       -0.020794189 -0.077779144 0.04796138 -0.07827802
000060 32 6c 1b bd 00 0a 02 bb 9d 55 80 3d e6 69 25 3d
       -0.03794498 -0.0019842386 0.062663294 0.040384196
000070 00 0e 73 bb 05 e2 3d bd 89 38 6a 3d 15 0d 7f 3c
       -0.0037087202 -0.046358127 0.057182822 0.015567084
000080 bd 32 15 3c 02 0f 98 3c fb 15 1e 3d d3 0b dc 3b
       0.009106335 0.018561844 0.03859518 0.0067152767
000090 f1 bd 36 3d 8e 86 59 3c 24 3d 17 bd a7 8e 78 3d
       0.044614736 0.013276709 -0.036923543 0.06068292
0000a0 95 40 89 bd 21 ab 4e 3c c9 03 82 3d 90 04 90 3d
       -0.06701771 0.0126140425 0.06348378 0.0703212
0000b0 cb 2a 81 3d 64 27 8b 3c 63 ea 4c bd ed 63 b3 3d
       0.0630699 0.016986556 -0.050028216 0.08759294
0000c0 d9 e2 07 3d d3 86 5a bd 31 fa 95 3d d7 4c cb bd
       0.033175323 -0.053351235 0.07323111 -0.099267654
0000d0 88 ee 0c bd 87 4f dd 3c 82 2b 17 bd bb 0b a2 3d
       -0.03440717 0.02701546 -0.036906727 0.07912394
0000e0 15 9e 9f bd 64 95 96 bd 9b 20 bc 3d 4d 0e f6 bc
       -0.07793824 -0.07352713 0.091859065 -0.030036116
0000f0 c5 2e 0f bc 70 6b 85 bd 7d 1c da 3c c9 07 6d bd
       -0.008739178 -0.06514633 0.026624912 -0.057868753
000100 63 de 87 3d fd 70 6e 3d 49 b1 92 bd 56 5a 96 3c
       0.06634214 0.058213223 -0.07162721 0.018353622
000110 c8 12 a3 3c e7 17 9a 3d 05 c3 85 bd 33 be b0 bd
       0.019906417 0.0752409 -0.06531338 -0.086300276
000120 82 9f 9f 3d ce 8a 95 bd 1c bc 78 3d 1c 13 2b 3d
       0.077940956 -0.073018655 0.06072627 0.04176627
000130 55 c6 f1 bc e6 45 61 3d 04 4b 81 3d ee 1c e8 3c
       -0.029513517 0.0549983 0.06313136 0.028334107
000140 6f 1a 48 bd e5 2c 90 bd 42 06 da 3c 43 6e 37 3d
       -0.048853334 -0.07039813 0.026614312 0.04478289
000150 ea 7a 48 bc 43 f3 dc bc 6e 70 91 bc 3e d3 ad 3d
       -0.012236336 -0.026971465 -0.017753806 0.08487557
000160 81 bb 85 bd 27 10 3c bc 37 49 49 3d 11 b7 43 3d
       -0.06529904 -0.01147846 0.04914209 0.047782008
000170 11 28 91 bd 46 ed 90 b9 49 0f 8e 3a b3 bd c5 bd
       -0.0708772 -0.00027642603 0.0010838296 -0.09655323
000180 34 bd 37 bd 16 a8 9f bd 72 4c 4e 3d a2 fe a5 bd
       -0.044858173 -0.07795732 0.050365873 -0.08105208

weight f4 [100, 100]
000000 63 28 b9 bd c1 47 a6 bd d2 ee 6e 3d 66 52 e9 bc
       -0.09040906 -0.08119155 0.058333226 -0.028481673
000010 8d 0d c3 bd 2f f7 03 3d cf fe 87 bd 56 48 4f bd
       -0.09524069 0.032218155 -0.06640398 -0.050606094
000020 7d 21 15 3d d6 f6 69 3d 23 46 bc 3d 24 f8 31 3d
       0.03640889 0.057120167 0.09193065 0.043449536
000030 19 84 be bd a6 a6 45 bc 83 b3 bf bc 9c 12 b2 bc
       -0.093025394 -0.012063658 -0.023401028 -0.02173739
000040 02 2e b1 bd e4 bc b3 bd af 40 8d 3d a6 3d 86 3b
       -0.086513534 -0.087762624 0.06897103 0.0040967045
000050 11 5b 89 3b a6 d1 61 3d f3 ee 7b bc b9 ff 04 3d
       0.004191764 0.055131577 -0.015376794 0.03247044
000060 5a da a5 3c c6 81 b6 3d dd 54 55 bd 25 d8 28 bc
       0.02024572 0.08911471 -0.052082885 -0.010305439
000070 ea 95 48 3d ab b6 b4 bd e6 05 20 39 6e 4b fc bc
       0.048971094 -0.08823904 0.00015260986 -0.030797686
000080 5b 0b 92 3d ae c5 37 bd b7 33 b6 bd e1 c1 8d 3d
       0.07131072 -0.044866256 -0.088965826 0.06921745
000090 4a 3d 6a 3d 2a 4c d5 bd 26 c1 1f 3d 8a bb 0b bd
       0.057187356 -0.10414918 0.03900256 -0.034114398
0000a0 75 a2 02 bd e4 9e 36 3d bc 2a 1d bd 3c 38 ea 3c
       -0.031893212 0.044585124 -0.038370833 0.028591268
0000b0 ce 61 8f bc f6 c0 42 3d 8d 1b 9d 3d 35 92 5a 3d
       -0.017502692 0.047547303 0.076712705 0.05336209
0000c0 ca 9d 69 bd aa 99 0a bd 5e 31 6c 3d 52 64 ab 3d
       -0.057035245 -0.03383795 0.057664268 0.08368744
0000d0 20 ec 9c bd 7b 04 7a bd de 53 07 3c 2d ca 43 3d
       -0.07662225 -0.06103943 0.008259742 0.04780023
0000e0 18 ac c5 3d 1c 6b 85 3d 70 22 ae bd 2f 11 a4 bd
       0.09651965 0.0651457 -0.08502662 -0.0801109
0000f0 9c e3 7b 3d 09 4e 52 3d 8b 5d b1 3c 56 e9 98 bc
       0.061496362 0.05134395 0.02165105 -0.01866595
000100 c3 f7 19 bd b3 57 89 bd 3b dd 2a 3d ed fa 8e 3d
       -0.0375898 -0.067061804 0.041714888 0.06981454
000110 8a 17 82 bc 7c 11 8d bd 31 47 69 bd 86 35 5e 3c
       -0.015880365 -0.068881005 -0.05695266 0.013562566
000120 28 46 53 bd 52 62 ed 3c 41 cf 02 3c b2 04 83 bd
       -0.051580578 0.028977547 0.0079839835 -0.0639738
000130 9a bc 94 bd c2 84 a5 bc c1 46 6d bd 2d dc c0 bd
       -0.072625354 -0.020204905 -0.057928804 -0.09416995
000140 8b da 9e bd d6 91 96 3c 7b 5c dc 3c 62 6d 40 3d
       -0.077565275 0.018380087 0.026899567 0.046979316
000150 20 54 5c 3d 4d f6 62 3c f3 8b c1 3c dc 17 b3 3c
       0.053791165 0.013852668 0.023626303 0.021861963
000160 5f 90 57 bd dc 48 88 bd 9a 97 b5 3d a5 81 ad bd
       -0.052627917 -0.06654522 0.08866806 -0.08471993
000170 ad 3b bc 3b ad 3e 9b bc 28 4e a0 bd 9f be 5f 3d
       0.0057444186 -0.018950785 -0.07827407 0.05462515
000180 b7 8a 2a bc 2b 15 a4 3c f1 e9 3e 3d f0 07 eb 3c
       -0.010409049 0.020029625 0.046609823 0.028690308
000190 4c 9b 69 bd ad 02 4d 3d 61 01 99 bd 64 8f 83 3d
       -0.05703287 0.05005138 -0.07470966 0.06423834
0001a0 c2 a9 b3 bd ad 33 a1 3d 30 1d 47 3c 39 12 66 bd
       -0.08772613 0.078711845 0.012152955 -0.056169722
0001b0 79 7f 88 bd e1 5e e1 3c b2 c7 8a 3d b7 bb 16 bd
       -0.066649385 0.027511062 0.0677637 -0.036800113
0001c0 cc 0d 86 bc 5b aa f5 bc 57 fd d3 3d 46 76 a8 bd
       -0.016364 -0.029988458 0.10351055 -0.08225684
0001d0 65 c1 93 3d 84 aa c6 bc c3 eb 9c bd ab 7c af bd
       0.072146215 -0.02425123 -0.076621555 -0.085687004
0001e0 c1 d1 e0 bc ed 9d 54 3d 36 35 a4 bb d1 e5 15 bd
       -0.027443768 0.051908422 -0.005011226 -0.036596123
0001f0 0d 1e c7 bc c1 71 c4 3c ec a9 3a bd 2a 27 35 3d
       -0.024306322 0.023980023 -0.045572206 0.044226803
000200 5d 9e e8 3b 4c dd 89 3d 18 78 41 3d 89 ec 68 3d
       0.0070989565 0.06731662 0.04723367 0.056866203
000210 ae 89 b4 3c 54 09 9c bd 02 b6 96 3d ca 3f 61 3c
       0.022038307 -0.07618967 0.07358934 0.013748119
000220 60 b7 7d bd 14 82 8d bd 29 73 b3 bd 35 28 55 3b
       -0.06194246 -0.06909576 -0.087621994 0.0032525186
000230 b9 15 42 3d 74 30 32 bd 1c 4d b1 bd 08 97 aa bd
       0.047383998 -0.04350324 -0.086572856 -0.08329588
000240 c0 66 2b bc 6f cc a8 bd 04 28 a9 3c 08 a4 17 bc
       -0.010461509 -0.082421176 0.020648964 -0.009255417
000250 28 36 ca 3c 3e fc ba bd 1c 33 b5 3c 30 77 ef bb
       0.024684027 -0.09130143 0.022119097 -0.0073079094
000260 86 70 4c 3d 82 ae 99 bc 75 2c 3b bc 66 67 d4 3d
       0.049912 -0.01875997 -0.011424174 0.10371284
000270 b8 88 94 bd f2 78 03 3d c8 d7 76 bd 2e fb bf 3d
       -0.072526395 0.032097764 -0.06026438 0.093740806
000280 a7 7b 88 bd 64 08 56 bd 14 7d ba bd 20 3e 6a 3c
       -0.0666421 -0.052254096 -0.09105888 0.014297038
000290 48 dd b6 bd 3e 52 e5 3c 2d b9 c6 3d 68 cc 1c bc
       -0.08928925 0.027993318 0.09703288 -0.009570219
0002a0 b1 82 04 bc b1 92 b0 3c 37 c5 b0 bc 1b 6d bf bb
       -0.0080878 0.021554323 -0.021578414 -0.005841864
0002b0 ee 13 ea 3c bd 61 55 bc e4 66 a0 3c 6e d0 84 bd
       0.028573956 -0.013023791 0.019580312 -0.06485067
0002c0 82 2e bc 3d ac ae e9 bb 84 0f 83 3d 42 5b d8 3b
       0.09188558 -0.007131418 0.06399444 0.0066026757
0002d0 6d 2d 8d 3c 40 ef b6 bd 82 b1 95 bd 78 1d 82 3c
       0.017233575 -0.08932352 -0.073092476 0.015883192
0002e0 4e 26 49 3d f4 4a 90 bd 76 f9 53 3c 40 4e 6d bd
       0.049108796 -0.07045546 0.012937894 -0.057935953
0002f0 62 e3 46 bd 57 0a 2d bd 54 7c 93 bd 16 d4 10 3c
       -0.048556693 -0.04224619 -0.07201448 0.008839628
000300 ac de 80 bd fb 11 a7 bd 7e 06 7d 3d 71 55 ca bd
       -0.06292471 -0.081577264 0.06177377 -0.09879578
000310 b8 a0 97 bd e8 f5 d6 3c 3b 27 ba bd 28 e6 3f bd
       -0.074037015 0.026240304 -0.09089514 -0.046850353
000320 59 5b 93 bd f6 99 29 bd 7f d5 ff bc ee e8 ba bc
       -0.071951576 -0.041406594 -0.031229733 -0.022816148
000330 ff d3 50 3d 3f 62 4c 3d 9f 15 a2 bd 70 9d 99 bd
       0.050983425 0.049898382 -0.0791428 -0.07500732
000340 73 71 21 3d 78 20 a8 bd 31 b1 31 bd cd ed d2 bc
       0.039414834 -0.08209318 -0.043381874 -0.025748158
000350 90 c3 c1 bd d4 86 58 3d f8 6a be 3d a8 ab a9 3d
       -0.09461129 0.052862957 0.092977464 0.08284694
000360 41 39 a1 bc 08 f6 c6 bd 74 5d bf bd 0e 53 cb bb
       -0.019680621 -0.097148955 -0.09343997 -0.0062049692
000370 1c 50 a2 3d c4 1d 59 3c 1f 6f 98 3d 19 5b b1 3d
       0.07925436 0.013251726 0.0744307 0.086599536
000380 f3 eb c5 3c 7e 01 4a bd e9 3f 09 bc 57 05 ad bd
       0.02416036 -0.04931783 -0.008377054 -0.08448284
000390 ea 00 49 3b 58 0b 32 bc e1 df 66 bb 83 e5 7f bc
       0.003067071 -0.010866962 -0.0035228657 -0.015618685
0003a0 13 33 ae bc 6f b5 60 bd 36 6a a0 3d ec d2 da 3c
       -0.021264588 -0.05486053 0.07832758 0.026711904
0003b0 b8 0b ba bd b3 a2 60 3c 9a 78 b9 bd b1 b5 c1 bd
       -0.090842664 0.0137106655 -0.09056206 -0.09458483
0003c0 32 05 87 bd 77 43 c0 bd e0 6e ae 3d 75 e4 b0 3d
       -0.06592788 -0.09387868 0.085172415 0.08637325
0003d0 81 19 b0 bb 34 3f 5f 3d 70 7b 19 bd 36 c2 7d 3c
       -0.005374134 0.054503635 -0.037471235 0.015488198
0003e0 7d b1 a4 bd 13 da 90 bd 13 15 40 bd d5 0d 07 bd
       -0.08041666 -0.07072844 -0.046895098 -0.032972176
0003f0 61 fe 7b bd 78 1d ac bd 29 bb 21 3c 6f 25 00 3d
       -0.06152189 -0.08404058 0.009871283 0.0312857

bias f4 [100]
000000 cc 95 51 3d 63 de c9 3d 90 9c 62 3c b9 ef 3c bd
       0.051168248 0.0985687 0.013831273 -0.046127055
000010 7b 0d a6 3d 9a 0a bb bb ce 7d a3 bd a9 45 b5 bd
       0.0810804 -0.005708051 -0.0798298 -0.08851177
000020 08 14 84 3d b1 64 db ba 0e 6c 0c bc d0 45 34 bd
       0.06449133 -0.0016738382 -0.008570684 -0.04401189
000030 32 69 24 3d 84 02 75 bd 29 60 83 3d 17 23 34 bd
       0.040139385 -0.059816852 0.064148255 -0.043978777
000040 7c 4b 9c bd e7 6d ab bd 8c a2 c6 3d e8 9e 71 bd
       -0.07631585 -0.083705716 0.09698972 -0.058989435
000050 0f 06 81 bd 94 ab e3 3c 36 19 01 3d cf 9f 0e bd
       -0.06299984 0.027791776 0.031518184 -0.034820374
000060 74 1b 09 3d 4e 32 83 3d d0 54 5a 3d 8b 75 4f 3d
       0.033473447 0.06406079 0.05330354 0.050649207
000070 1d 3e c3 3d 7d 81 d4 3b 95 c6 91 bd 6d b4 5c bd
       0.095333315 0.006485163 -0.07117955 -0.053883005
000080 c4 f8 85 bd 50 73 11 3d 0f 88 51 3d 4e 2f d7 ba
       -0.06541589 0.03551036 0.051155146 -0.0016417296
000090 b1 40 88 3d d8 4e 5f 3d 74 db 48 bd 31 a8 79 bd
       0.06652964 0.05451855 -0.04903741 -0.060951415
0000a0 21 ac 1b 3d 0e 13 7e bd 82 92 44 3d ea 8d 95 bd
       0.03800595 -0.06202989 0.047991283 -0.073024586
0000b0 94 bc e7 3b 46 8a d5 3b 0d 24 a8 3c 4a b7 30 bd
       0.007072041 0.0065167276 0.020525003 -0.043143548
0000c0 47 b6 17 3d 09 73 3f 3d 0a f2 97 3d e4 74 6b 3a
       0.037039068 0.046740565 0.07419212 0.00089819566
0000d0 ff b7 c0 3d d9 01 02 bd 9b 46 03 bc b9 02 e9 bc
       0.094100945 -0.031740043 -0.008012439 -0.028443681
0000e0 83 24 70 bc b3 20 23 bd 94 7b ad 3d a2 44 86 bd
       -0.014657143 -0.039826106 0.08470836 -0.065560594
0000f0 66 b5 7d bd d7 51 c4 bd 8f 19 6c 3d 29 19 ff bc
       -0.061940573 -0.09585922 0.057641562 -0.031139927
000100 8a b7 96 3d a1 91 14 bc 89 72 84 3d 3b 6a 51 bd
       0.07359226 -0.009067924 0.06467158 -0.0511267
000110 e9 d5 52 3d 75 a1 a5 3d a9 b7 b9 bd 14 0c 9e 3b
       0.051473532 0.08087436 -0.090682335 0.004823217
000120 07 4b 5c 3d 32 1b 35 bd 95 45 a6 3d 75 04 a9 bd
       0.05378249 -0.04421539 0.081187405 -0.08252803
000130 53 06 07 3d 5f 82 99 bd f0 0f cd bd 88 ee 45 3d
       0.032965016 -0.074955694 -0.100128055 0.048323184
000140 9d 8d f8 3b a6 fc c0 bc 05 07 dd ba 08 c2 aa bc
       0.007585241 -0.023557972 -0.0016863054 -0.020844474
000150 53 e0 82 3d 4c 69 80 3c d9 18 e1 3c bb e4 bf 3d
       0.06390443 0.01567521 0.027477669 0.09369799
000160 9f 8d 6e 3d 3a 59 c3 3d 19 a0 00 bd 57 27 29 bd
       0.05824053 0.09538503 -0.03140268 -0.041297283
000170 07 04 42 bd ed 42 69 3d f1 3e 7a 3d 82 a2 a2 bc
       -0.047367122 0.05694859 0.06109518 -0.01985288
000180 54 f7 87 bd b2 b7 c4 3d ac 90 59 3d 9e 37 21 3d
       -0.06638971 0.096053496 0.053116485 0.03935968

weight f4 [100, 100]
000000 cc 5a 11 bd 7f f9 2f 3d 68 fe 06 bd 1a 8e 5d 3d
       -0.03548698 0.042962547 -0.032957464 0.054090597
000010 b6 df b2 3d 6d fe 99 bd de ac 1b 3d f9 1e 8e bc
       0.08734076 -0.07519231 0.038006656 -0.017348753
000020 b2 fa 8d 3d 70 ab bc bc 7a 68 fa 3c 62 c0 5c 3d
       0.06932582 -0.023030967 0.030567396 0.053894408
000030 3e e7 9a bc d0 ff c7 3d 51 1e 73 bd a3 9f 9f bd
       -0.018909093 0.09765589 -0.059355084 -0.0779412
000040 06 10 32 bc bc dc 53 3d 5a aa 7f bc f4 d6 5a 3d
       -0.010868078 0.05172418 -0.01560458 0.05342765
000050 ba 4c 8e bb 9c 22 61 bd a9 d0 85 3d c0 88 01 3d
       -0.0043426426 -0.054964647 0.065339394 0.031624556
000060 06 bf 8f bd 2c e4 76 3d a7 c5 03 bc 35 40 6c bd
       -0.07018857 0.060276195 -0.008042729 -0.05767842
000070 c6 08 a8 3b ce f5 d4 bc d9 a9 61 3d 7a ff 23 bd
       0.005127999 -0.025996115 0.05509362 -0.040038563
000080 ec f5 c3 3b e3 51 ed 3a c1 d5 b0 bc 3e cf a3 3d
       0.005980244 0.0018106069 -0.0215863 0.07998513
000090 16 d8 af 3b c1 8e c1 bd 7b 60 41 bd d5 fc f2 39
       0.0053663356 -0.09451056 -0.04721115 0.00046346211
0000a0 0e ce 61 bc 89 b1 62 bd eb 28 74 3d ea 34 03 3d
       -0.013782037 -0.055345092 0.059609335 0.032032885
0000b0 9f f3 87 bb e3 1b 96 3d 3a 95 80 bd 28 8e b8 3d
       -0.004148915 0.07329538 -0.06278463 0.09011489
0000c0 bf a5 c1 3c 40 e8 ba 3c c0 80 a2 3d 8d 0b 09 bd
       0.023638604 0.022815824 0.07934713 -0.03345828
0000d0 7f 6a 95 bd 30 32 3e 3d 40 bb 6c 3d df 30 20 bd
       -0.07295703 0.04643458 0.057795763 -0.039109107
0000e0 36 96 be bd 4a 20 b8 3b 5d b6 bc 3c 98 7d 57 bc
       -0.09305994 0.0056190835 0.023036176 -0.0131525025
0000f0 c4 8b 3a 3d f7 7d c4 3d 36 14 bb 3d 45 c1 9e bd
       0.045543447 0.095943384 0.09134714 -0.07751707
000100 da 37 c0 3d 9f 8b 83 bd d7 cc 52 bd bf d5 4e bd
       0.09385653 -0.06423115 -0.05146488 -0.050496813
000110 99 07 be 3d cd 09 bd 3d fe f5 86 bd 9d c8 38 3d
       0.09278793 0.09230385 -0.06589888 0.045113195
000120 a6 07 79 bd e1 d0 a9 bd be da 88 bc 6e 9d bb 3b
       -0.06079831 -0.082917936 -0.016705867 0.005725554
000130 a4 23 a9 bd bb cb e1 bc 70 2f 7d 3c 8d fe b4 3d
       -0.08258751 -0.027562967 0.0154532045 0.08837614
000140 1d 22 bb 3d b5 a4 9f bd a0 2f 78 bd dc 0a 6c bd
       0.09137366 -0.07795087 -0.060592294 -0.057627544
000150 81 30 24 3d 52 c4 9e 3d b9 e9 8a 3d ab 2f 83 bd
       0.04008532 0.07752289 0.0678286 -0.06405576
000160 48 de c6 3d 77 5a d3 bc f2 93 b5 3c e6 80 b9 3d
       0.097103655 -0.025799973 0.022165272 0.090577886
000170 44 34 16 3d 4f b9 ca 3d fe e0 69 3d 16 c2 b8 bd
       0.036670938 0.09898626 0.057099335 -0.09021394
000180 95 f8 be bd f8 e4 0a bc c1 71 26 3c 7d f7 8c 3d
       -0.09324757 -0.008477442 0.010158957 0.06883142
000190 cc ea 0b bc 02 b9 81 3d 8c 32 0b 3d f9 d1 62 3d
       -0.008539867 0.063341156 0.033983752 0.055376027
0001a0 b5 ef 66 bd bf 3d 90 bd 02 c7 a5 bd f9 26 80 3c
       -0.056380946 -0.07043027 -0.08094598 0.015643584
0001b0 45 b9 89 bd d6 d4 24 bd e1 e8 9f bd 87 b1 8e bd
       -0.067247905 -0.04024204 -0.0780809 -0.069674544
0001c0 f2 5f a9 3c a3 28 d3 bd 14 15 08 be 0b f0 19 3d
       0.020675633 -0.10310485 -0.1328929 0.03758244
0001d0 a9 4b bc bc 5d 61 83 bd 66 cd d1 3d 2d 23 c1 bd
       -0.022985296 -0.06415055 0.10244255 -0.094305374
0001e0 2e 06 8b 3d 56 53 cd 3d 76 39 98 bd e5 24 3e 3d
       0.06788288 0.10025661 -0.07432835 0.046421904
0001f0 03 1c 8d bd 75 01 0b bc 26 a4 49 bd 51 00 c7 bd
       -0.068901084 -0.008484234 -0.04922881 -0.09716857
000200 4c c6 4e bd 08 68 70 3d ca ca 2e 3d a9 1e 8d bd
       -0.05048208 0.058692962 0.042673863 -0.068906136
000210 f3 ef 52 bd 5a 99 90 3d cb 15 f6 3d 3e c1 93 3c
       -0.051498365 0.070604995 0.120158754 0.018036481
000220 c4 59 0b bc 5d 60 cd 3d 8c e3 52 3d 30 ea 3a bd
       -0.0085052885 0.100281455 0.051486537 -0.045633495
000230 fe 2f 3e bd c1 28 80 3d bc 02 35 3c 06 28 0d 3d
       -0.046432488 0.06257773 0.011048015 0.034461997
000240 85 7b 80 bd 70 d6 de 3c b8 00 c0 3d db eb 3d bd
       -0.062735595 0.027201861 0.09375137 -0.046367507
000250 b3 9d 7d 3d e3 b2 8e 3d 5a d9 be bd 9e ee 3f bd
       0.06191797 0.06967714 -0.093188 -0.046858422
000260 9b 1d 91 bd 1d 04 97 3c ef b4 26 3d 88 9f a5 3c
       -0.07085725 0.018434579 0.040699895 0.020217672
000270 96 fd 3f 3c 49 ad 48 bd b3 c3 a3 3d f9 fc 49 bd
       0.011718174 -0.048993383 0.07996311 -0.04931352
000280 4f c9 06 bc 2a 97 ba ba 7a 58 89 bd 28 7c 32 bd
       -0.008226707 -0.0014235724 -0.06706329 -0.043575436
000290 7a cb 05 bd 99 a3 b8 bc 84 14 c1 3b f4 95 0b 3d
       -0.032664753 -0.022538947 0.005892338 0.034078553
0002a0 14 ea 1f 3c 57 4b 28 bd 88 04 5e bc 4e d1 7f 3d
       0.009760398 -0.041087475 -0.013550885 0.062455468
0002b0 78 cd b8 bd a5 12 59 3d dc d3 0a bd f5 d4 a5 bd
       -0.09023565 0.052996296 -0.03389345 -0.08097259
0002c0 42 7d 20 bd 54 0f 81 bd bb fa aa bd 1c d9 2e bd
       -0.039181955 -0.06301752 -0.08348604 -0.04268752
0002d0 96 72 cd bd bb dd 09 bd 26 64 82 3d 04 2f 17 3d
       -0.10031621 -0.033658724 0.06366758 0.036910072
0002e0 e5 0a 46 3c a4 a3 bb bd ba e4 79 3d da 73 a1 bd
       0.012087558 -0.09162071 0.061009146 -0.07883425
0002f0 a2 0e 08 bd 4c 93 56 bd f6 80 92 3c 03 d4 a7 bd
       -0.03321708 -0.052386567 0.017883759 -0.08194735
000300 eb 4a b5 3d c1 03 b5 3d 77 04 43 bd 4d 8f a7 3d
       0.0885218 0.088386066 -0.04761168 0.08181629
000310 ce 14 eb bc 1d c5 a3 bc e3 2c f7 3d 80 b7 15 3d
       -0.028696444 -0.019991452 0.12069108 0.036551952
000320 48 84 b0 3d e1 09 0c bd e6 7b b3 bd 18 52 9e 3c
       0.08618981 -0.03418911 -0.08763866 0.019326255
000330 92 e9 a6 3d 7b d2 e7 bc b8 b2 da 3d e1 4f e2 3c
       0.08150019 -0.028298607 0.10678619 0.02762598
000340 53 5f 8c 3d 59 fd 6c 3c 6a 79 d4 3c 63 dc 03 3d
       0.06854119 0.0144647 0.025936801 0.0321926
000350 91 6d b3 3d 84 58 38 bc 7f 34 f1 3d 5d 3c 26 bd
       0.087611325 -0.0112515725 0.11777591 -0.04058491
000360 eb bb c0 3d 9a 45 ca bd 7a ef 96 3d e5 e5 70 bd
       0.094108425 -0.09876557 0.07369895 -0.058812995
000370 a2 f2 13 bc 16 bc 92 bb 3c dd a4 3d 7c ad 83 bb
       -0.009030016 -0.004477988 0.080500096 -0.0040184837
000380 66 07 b4 3b 9d ef c6 bd 99 21 42 3c eb 10 84 39
       0.005494046 -0.09713671 0.011848831 0.00025189607
000390 c3 28 fa 3c ae 0a 85 bd c0 66 38 3b 7d 36 d8 bc
       0.030537015 -0.064961776 0.0028137416 -0.02639317
0003a0 3e 1a 42 bd 4c 83 3a bd 36 0b fb bd 57 95 c2 3d
       -0.047388308 -0.04553537 -0.12257998 0.095011406
0003b0 05 5e a8 bb 19 69 31 3d a1 f2 cc 3b 41 6c be 3b
       -0.005138161 0.04331312 0.0062545096 0.0058112447
0003c0 18 84 90 3c e4 d3 e2 bc 24 b7 ad bd 37 7c ad bd
       0.017641112 -0.027688928 -0.08482197 -0.08470958
0003d0 d6 67 8d bd 81 2f 99 3b 0e bb 89 bd 97 3b c6 bd
       -0.06904571 0.0046748524 -0.06725131 -0.096793346
0003e0 92 48 87 3d e7 da 89 bd c5 a4 67 3a 77 13 c9 bd
       0.066056386 -0.067312054 0.0008836503 -0.09818166
0003f0 71 49 97 bc de e2 b1 bd 06 da 82 3c e3 e9 85 3d
       -0.018467637 -0.086858496 0.015973102 0.06538751

bias f4 [100]
000000 ad 2e f2 3b 80 59 7b bc 2c 80 a5 3d 04 f8 77 3d
       0.007390818 -0.015341163 0.080810875 0.06053926
000010 90 2c a4 3d f3 63 b3 3d f2 9f 58 bc cd 30 3d bd
       0.08016312 0.08759298 -0.013221728 -0.04618912
000020 88 04 fc 3c dd 0a e9 3b 7f 76 10 3c 94 11 da bc
       0.03076388 0.0071118907 0.008817314 -0.02661971
000030 e0 d8 41 bd ab f3 3f bd e1 30 80 bc 68 b4 c0 3d
       -0.04732597 -0.04686324 -0.015648307 0.0940941
000040 61 47 88 3d b1 b3 82 bc 1b 56 54 bd 78 eb 93 bd
       0.066542394 -0.015954824 -0.05183993 -0.072226465
000050 c3 4f af 3d e3 24 07 3d 94 5a 12 bc fc 6f 79 3d
       0.08560135 0.032994162 -0.008932728 0.060897812
000060 40 f9 9a bd b6 d4 94 bd 6a ea 97 bd 72 84 bc bd
       -0.07567072 -0.07267134 -0.07417758 -0.092049494
000070 2e 80 fc bc 5e db 03 bc b8 98 86 bd 12 ee b8 3d
       -0.03082284 -0.008047907 -0.065720975 0.09029783
000080 93 07 ac 3d 2f 34 f9 bc 7c be 2c 3d 16 91 a6 bd
       0.08399882 -0.03042039 0.042173848 -0.08133142
000090 8d e0 45 bb 2b e3 c4 3b a0 14 1e bd a2 3e 3b 3d
       -0.0030193657 0.006008526 -0.03859389 0.04571403
0000a0 df dd 8a 3c 42 60 a8 bd 83 f6 41 bd 78 78 62 bd
       0.0169515 -0.08221485 -0.047354233 -0.05529067
0000b0 2e 13 48 bd 42 e7 74 bc 1b 91 ad 3d c4 96 88 bd
       -0.048846416 -0.014947714 0.08474942 -0.06669381
0000c0 0f d6 70 3d 36 6f ac 3d ec f9 4e bc 7e fe 28 3d
       0.058797892 0.08419649 -0.012632828 0.041258328
0000d0 67 cf 93 bb 5d d7 1d 3d 1a fd 7b 3d 1a fa 09 3c
       -0.0045108083 0.038535465 0.061520673 0.008421445
0000e0 7b 2e bf 3b c6 b2 01 bd a1 fb 20 bd 49 99 8b bd
       0.0058343983 -0.031664632 -0.039302472 -0.06816346
0000f0 06 91 8d bc d6 ac bc 3d 14 f4 27 bd 78 f8 0c 3c
       -0.017281067 0.09212653 -0.041004255 0.008604161
000100 a0 ab 89 bd 13 c2 11 bd 8b ad 99 3c eb dc 47 bc
       -0.06722188 -0.035585474 0.01875951 -0.012198667
000110 f6 c3 a1 bd 28 7f ce bd 93 41 a7 bd c0 65 73 3d
       -0.07898705 -0.10082847 -0.08166804 0.05942321
000120 ce d0 eb 3a 8a 6b 39 3d 2c e1 8d 3d d0 5c b7 3c
       0.0017991306 0.045268573 0.06927714 0.022383124
000130 50 35 5b bd e6 5b 3d bc 50 88 8f bd c3 1a 9e 3d
       -0.05351764 -0.011557555 -0.070084214 0.07719948
000140 b9 03 30 3d 59 b2 cf bd e1 1e 23 bd 45 11 15 3c
       0.0429723 -0.10141439 -0.03982437 0.009098356
000150 1e b5 93 3d 0b f6 6f 3c 8c 56 db ba d6 b5 fd ba
       0.0721228 0.014646064 -0.0016734167 -0.001935656
000160 68 00 ba 3d 72 79 19 bd 01 83 61 3d 31 98 ab bd
       0.09082109 -0.037469335 0.055056576 -0.083786376
000170 8b d8 2d bd d4 f4 33 bd b7 19 9c 3d e3 54 2b bd
       -0.04244284 -0.04393466 0.07622092 -0.041829
000180 20 fc 2b bd 08 98 51 3d b3 0e 83 bd 05 9d a8 bd
       -0.041988492 0.05117038 -0.06399288 -0.08233074
