model/rl-lavaworld-jul2023-example/model.pt (torch, 108645 bytes, 11 tensors)

weight f4 [100, 147]
00000000: cd52 ab3d f6a5 663d 01c2 e93d 9e38 a03c
00000010: 4421 2b3a b443 993e 02cd f53d f9ab bcbd
00000020: 83d2 45bb 7322 09be 88dd e03b fa23 d23c
00000030: 9d34 be3d 1b8b 293e d6eb 2cbd fad3 24bd
00000040: 22a1 483d 1ebd 15bd 8deb e43c 4baa 823e
00000050: 4d9b 113e 95d0 58be b87e 95bd 309e 88bd
00000060: 6c77 bbba 0ea9 6fbd c5dd 24be 4d99 88bd
00000070: 6441 d1bc c0cd d73b c734 d83d 58f4 e43d
00000080: b84f 853d a99d df3d f23e 7cbe e25d a7bd
00000090: e7aa f03c da58 c3be befb 313d 612d 6cbe
000000a0: 7916 3ebd 30e1 8fbe 115a 75be 9a68 a8bc
000000b0: 2e21 34be fe98 e13d 7e3b 19bd 6230 58bd
000000c0: a22f c1bd e346 30be 2967 c53d 78a3 e83b
000000d0: 56a0 23be 37ea 9dbd 1fa0 6c3d 5db3 c9bc
000000e0: 64c2 0bbe cfce 5a3d bdaa bdbc 1f1d 0fbe
000000f0: 0874 5bbd b275 583d 0d13 2fbe 717f 2bbc
00000100: 1543 393d 219a 7cbd 1086 acbd 3c33 b7bd
00000110: 65ae 8dbd 323e 2bbe 377a 943b 3262 e5ba
00000120: 8e8c 83bd 90a1 d2bc f658 0a3d 2c70 2a3c
00000130: e1c8 52bd 3698 0b3e 7240 9e3d 79c0 27bd
00000140: 9a3d 32bd 9868 c93c 15a9 7cbd ba43 9bbd
00000150: 9059 d13d 6201 df3d 3dfb 1c3d 8b1b edbc
00000160: 1005 b73d 401b 043e 0a90 d83d 620d b03d
00000170: d85f e4bd dfbf c0bc 5883 b9bd 3c5d b5bc
00000180: 6238 a73d ceb3 bb3d 3957 2f3d 470b a83b
00000190: 80de c33c 0e48 163d 5bde 1dbc d89c b8bc
000001a0: 7cfe 803d bda9 a43d 047c 1c3d a9ad 13bd
000001b0: 45ee 92bd 16b9 a6bd 8892 153a a49e 01bd
000001c0: e406 aabc 7407 3ebc 05bf 9f3d 981c a03d
000001d0: 24b0 fcbb 9be3 cabc 5910 243d f2a9 d7bb
000001e0: b8b9 a0bd ab3e dc3c 72b6 a13d 32e5 85bd
000001f0: 04ed 91bc 3b87 923c ce8c 89bd 919e 90bd
00000200: 0534 7c3d f53f efbc 2011 453d 879c f13b
00000210: 83da a43c 1627 61bd d24d 90bc fbd9 5e3d
00000220: 86f3 1a3d 105a c3bc 313d 263c 4853 813d
00000230: 0101 94bd 8b01 593d 7a10 cbbc 5374 89bc
00000240: c9c2 203d 1e54 8cbd 1725 4cbc a1d7 243e
00000250: f2ce ee3d 6e90 e2bd e93e 6a3c dc51 9e3b
00000260: 251e 423d 19d3 ecbd 1e2a 43bd d6bd c2bc
00000270: d15a f7bc 89db b63d 7a72 133d 3c9c 8e3c
00000280: 0ea1 94bc b1fc 34ba 53c0 f3bb 1282 89bd
00000290: 27b4 54bc ca0d b03b 449f be3d 0f15 4bbe
000002a0: f5b7 713e 135a 47bc ab33 183e 750a 25be
000002b0: 3ffa 973e 7d28 9e3e 1c04 28bc 7b67 813c
000002c0: 8ea9 6ebe 3861 77bc 5d44 67be a596 37bd
000002d0: c2b6 adbd 5de1 16be cd0a a4be 2233 693c
000002e0: 4c80 ecbd b6fe 73be 0e9f 9e3d e199 04bd
000002f0: a978 09bd 3f7e 93bb ce2a 363d 57ae 413c
00000300: b165 0dbe 7bf6 1ebd 79f4 0e3e 40d1 2dbe
00000310: 1315 363d 09e8 b33d 5c4f e93c 385d 7bbc
00000320: 0ce7 10bd b72d 8f3d 4a03 03bc 6900 aebd
00000330: 9dc1 523d 0761 4e3d 983a b6bd 2745 02be
00000340: c0ff 3ebe e969 b2bd da70 aabc 0fa3 c93d
00000350: 0a42 053e 22f5 6c3b 6af2 99bd e236 56bd
00000360: 4742 ef3c 66ae d4bd da2e 583d 6913 e03d
00000370: a50e 2ebe 0300 61be 1b46 dcbd 3acf 643d
00000380: 82b0 3bbe f00f 943d 6639 ae3d 20d9 38bc
00000390: f9c5 40be c2df 27be 6f57 99bd 744c 61be
000003a0: 7753 c1bd 84a0 a23d e860 0bbe 03d2 8abe
000003b0: 7bd9 73bd 32cd ecbd 3484 903d e87d 8abd
000003c0: 06fd 863d b1b7 d73b 6546 413d 393d c23c
000003d0: 3c51 f63d 499b 28bd 2743 9dbc 42cb 44b7
000003e0: acaf 973b 173b a5bd e2c5 2d3d 780e 4fbd
000003f0: 47e2 4d3d 25c8 9a3d 0954 e1bc 45aa 173c
0.08365402 0.056310616 0.114139564 0.019558247 0.0006528089 0.29934466 0.12001993 -0.09212489
-0.003018529 -0.13392048 0.006862346 0.02565192 0.09287379 0.16556971 -0.0422171 -0.04024122
0.048981793 -0.03655731 0.02794435 0.25520548 0.14219399 -0.21173318 -0.0729956 -0.06670797
-0.0014302558 -0.058510832 -0.16100223 -0.06669865 -0.025543876 0.0065858066 0.105569415 0.11179417
0.06509346 0.10918743 -0.24633387 -0.081722036 0.029378368 -0.38153726 0.04345297 -0.23064186
-0.04640815 -0.28101492 -0.23960139 -0.02055769 -0.17590782 0.11015509 -0.03741025 -0.052780516
-0.09432913 -0.17214541 0.09638817 0.007099565 -0.15979132 -0.077106886 0.05776989 -0.02462166
-0.13648373 0.053419884 -0.023152703 -0.13975953 -0.053577453 0.052846618 -0.17097111 -0.010467396
0.04522999 -0.061670426 -0.08424008 -0.08945319 -0.06918029 -0.16722944 0.0045311707 -0.0017500578
-0.06423293 -0.025711805 0.033776246 0.01040272 -0.051461104 0.13632283 0.07727136 -0.04095504
-0.04351578 0.024586007 -0.061684687 -0.07581277 0.10222161 0.108889356 0.038325537 -0.028943798
0.089365125 0.1290102 0.10574348 0.085963026 -0.11151093 -0.023528991 -0.09058255 -0.022139184
0.08165051 0.091651544 0.04280779 0.0051282975 0.023909807 0.03668981 -0.009635533 -0.022535726
0.06298539 0.080401875 0.038204208 -0.036054287 -0.071743526 -0.08140771 0.0005705734 -0.031645432
-0.020755239 -0.011598457 0.07800106 0.07817954 -0.0077114273 -0.024766734 0.040054653 -0.0065815384
-0.07847923 0.026885351 0.07896127 -0.06537856 -0.017813213 0.017886749 -0.067163095 -0.07061494
0.061573047 -0.029205302 0.048112035 0.007373396 0.020123726 -0.054968916 -0.017615233 0.0544071
0.0378299 -0.023846656 0.010146425 0.06314713 -0.07226754 0.052979987 -0.02478813 -0.0167791
0.03924826 -0.068519816 -0.012460015 0.16097881 0.116605654 -0.11062704 0.0142972255 0.0048315357
0.04739203 -0.11563701 -0.047647588 -0.023772161 -0.030194672 0.08928592 0.035997845 0.017408483
-0.018143203 -0.0006904109 -0.0074386983 -0.06714262 -0.012982405 0.0053727375 0.09307721 -0.19832252
0.2360533 -0.012167471 0.1486346 -0.1611727 0.2968311 0.30890265 -0.010254886 0.015796414
-0.23306867 -0.015098862 -0.22584672 -0.0448214 -0.08482124 -0.14734407 -0.3203949 0.014233382
-0.11547908 -0.23827633 0.07745181 -0.032373313 -0.033562336 -0.0045011337 0.044474415 0.011821351
-0.13808323 -0.03880928 0.13960446 -0.16974354 0.04445369 0.087844916 0.028480224 -0.015342049
-0.035376593 0.06991141 -0.00799639 -0.08496172 0.051454175 0.0503855 -0.088978946 -0.12721692
-0.18652248 -0.08711607 -0.020805765 0.09845554 0.13013473 0.0036156853 -0.0751694 -0.052298434
0.029206408 -0.10384826 0.052779056 0.10941202 -0.16997774 -0.2197266 -0.10755559 0.05586169
-0.18329051 0.07229602 0.08507042 -0.011282235 -0.1882552 -0.1639395 -0.0748738 -0.22001821
-0.09439748 0.07940772 -0.13611186 -0.2711335 -0.059533577 -0.115625754 0.07056466 -0.06762296
0.06591229 0.006583177 0.047186274 0.023710834 0.12027213 -0.041163716 -0.01919706 -1.1729835e-05
0.004629096 -0.08067911 0.042425044 -0.050550908 0.050264623 0.07557706 -0.027505891 0.009256904

bias f4 [100]
00000000: 29ed b9bd 5bea cbbc a418 a1bd 4bea 16be
00000010: 1360 7dbd c212 d9bd e648 353d 94d0 06bd
00000020: 12c9 94bd 784b 05be c5a4 81bd 955e a6bd
00000030: 9c20 4fbd 00ad 713d 4ad8 38bd 4271 db3c
00000040: df2c 133d bbb9 203c 09a1 f9bc c186 a13c
00000050: 0ee1 f1bc a434 623c 0af7 21bd 5e50 a7bd
00000060: b23f 72bc aa79 b4bd 85ce 273d 2b79 343c
00000070: 4a25 0d3d e94a 003d 0a1e 833c be39 e33c
00000080: fa4f 77bd ffb9 883c 3852 18be 49b0 04be
00000090: bbd0 20bd 5efb 8d3d 8643 c0bd a481 73bd
000000a0: 4c46 a4bd b871 a93c d984 86bb 6353 6fbd
000000b0: edc9 b53d 6366 f7bc 1418 3bbd c115 00be
000000c0: 723e d53b fb86 2e3d 3329 c0bd bb93 a2bd
000000d0: 870e b8bd 09b1 15be 8f9d 4bbd 35fd cdbd
000000e0: d1ef 143d 6616 11bd db02 bfbd f6d5 6cbb
000000f0: a977 f83a f3f8 9cbd fd53 a4bc b324 08bd
00000100: 4e94 b1bd 8fbb e3bd 2b18 33bd 5e87 23bc
00000110: e3ee 30bd 0c2e 663d 2005 95bd 3d6c 9cbd
00000120: d8eb 653c e363 c6bd 552d 2ebd aedc a4bc
00000130: fe17 3fbc a073 bb3c 8c2e 20be 15fb ebbc
00000140: 3c69 263d ac3a 103d 84d3 03bd 5e58 693d
00000150: b57d 91bd 77cf e0bd cd37 cdbd 8e89 9dbc
00000160: 8325 debc 32fb 19be 416c 85bd 6ae6 31bd
00000170: 73dc c2bd ab71 9f3c b9b7 383b 9f0e b4bd
00000180: 4e00 7fbc fedf 11be 7646 82bd ccd1 443d
-0.09078438 -0.024892023 -0.07866028 -0.14737813 -0.0618592 -0.10599281 0.044258974 -0.03291376
-0.072649136 -0.1301707 -0.063302554 -0.08123509 -0.050568208 0.059002876 -0.045128144 0.026787404
0.035931464 0.009809907 -0.030472295 0.019717576 -0.02952626 0.013806496 -0.039542235 -0.08169626
-0.014785694 -0.08812268 0.040968437 0.011015217 0.03445939 0.03132144 0.016005535 0.027737495
-0.060379006 0.016690252 -0.14875114 -0.12957872 -0.03926156 0.0693271 -0.09387879 -0.059449807
-0.080212206 0.020684108 -0.004105192 -0.058429133 0.08876405 -0.030200189 -0.04567726 -0.12508298
0.006507688 0.042609196 -0.09382858 -0.079383336 -0.08987146 -0.14618315 -0.049710806 -0.10058061
0.03636152 -0.03542175 -0.093267165 -0.0036138273 0.001895656 -0.07664671 -0.02005958 -0.033238124
-0.08670865 -0.11119758 -0.04372422 -0.0099810045 -0.04319657 0.056196257 -0.07276368 -0.07637832
0.01403328 -0.09687021 -0.0425237 -0.02012476 -0.011663435 0.022882283 -0.15642756 -0.028806249
0.040627703 0.035212204 -0.03218414 0.05696904 -0.07104055 -0.10977071 -0.10020409 -0.01923063
-0.027117496 -0.1503723 -0.065147884 -0.04343263 -0.095147036 0.01946338 0.002818568 -0.08791851
-0.0155640375 -0.14245602 -0.063610956 0.04805164

weight f4 [64, 100]
00000000: ee3f 20be 9803 9d3d 41fa 38bc 0923 a0bc
00000010: 3d65 1bbe 662e 32bd 7247 343a 3e5f 563d
00000020: 24cd a9bd d5e3 aebd 5602 4d3e 4cd3 133e
00000030: 5b56 563d eb26 babd 237f aaba 3451 d33d
00000040: 79e9 dd3d 140f e4bd 4539 cebd b136 10be
00000050: f459 21bd 8bfe 7b3d c24e ec3d 28cd 82be
00000060: bdbe e2be f8f2 b3bc e377 c63d ff80 ba3c
00000070: 0bf7 58be 0997 36be 28c0 983d 8f3d 6cbd
00000080: 188d 35bd 213f 8cbd 0cd5 643d 421e e1ba
00000090: 2c96 8a3c 495a 61bc 3016 7c3d 15d9 eebd
000000a0: 1e82 e5bd dc10 393d 0d23 2ebe 02cf bbbd
000000b0: 0c10 1d3e a210 73be 2f12 62be ddda 0fbe
000000c0: d62a debc 0956 e0bd 2440 2cbd eb40 bc3b
000000d0: 89ee f1ba 5d2e 0ebd dc22 babd 2dda bfbd
000000e0: 024e 5e3e ed09 273e e07f 173d 3733 c1bd
000000f0: 238a 93be 890a e6bd c524 43be ee35 14be
00000100: 2ac3 113e 5c0f a1bc 3bcd efbc 16ad efbb
00000110: 6e7f 9bbd c9e2 11be 0110 adbd 58c1 8d3d
00000120: b276 d13d 980a 133c d593 08be 31f9 0bbd
00000130: 0114 8ebd b0e7 8e3c e376 13bd cd28 be3d
00000140: 755a 5fbe 0259 1ebe 2504 223e 8d38 5a3d
00000150: 95d7 8ebd 177a 0d3c 6b74 2fbe ace9 b23d
00000160: a884 55bd 1730 ce3d 4051 5dbd 4ad5 1fbe
00000170: 6ec8 e23c f087 4fbb 8009 0ebc c71f 263e
00000180: 2515 2fbe 67ba 55be 9b9a 70bd eb4f 263d
00000190: 6836 d03c b06f 68bd b67c 7f3d 99f1 ab3d
000001a0: daf0 ad3d c511 f33d 1b02 8a3d 28b6 0bbe
000001b0: a984 debd 77c5 27be 7f55 75bc e4b2 21be
000001c0: 88b0 8dbd 479b 5d3d e0ba d3bc 9d7d 4ebe
000001d0: e93e d93c a6ac b63d 814e 013c 69b7 b0be
000001e0: ba7f a73d a7af dd3d 2536 24be 737e 90be
000001f0: 4faa 1abe fb3e 00be b43f 8fbd abdc 4abe
00000200: 4956 98bd e231 963c b36d abba 282f 243e
00000210: 0cfd ecbd faff 7abe 029d f5bd 45e5 9ebd
00000220: bcde 91bc 6bb0 2cbd e13d 6dbd aecc 5bbe
00000230: 45e9 c23b f43f f33d ca13 5dbe 7495 fd3d
00000240: f2de c83d 9c48 1c3e 4a6e cd3b c6c9 36be
00000250: 01b1 e0bd 035e 9bbd fcc1 12bd 3dec fbbc
00000260: d8bc 29be 277f 813d 754e 99bd 9f68 143d
00000270: b048 013e 2bb2 0b3e 3504 a0bd 4c08 98bd
00000280: 8a47 72be ad90 a6bd 9b37 323c b717 5b3b
00000290: 8432 5fbd 5c6a bcbc 7d54 e5bd ca27 8ebd
000002a0: aa9e 14bd e14e f63c 4161 afbc 85f0 edbd
000002b0: f738 7fbc 4e65 963b 710f af3d 1d10 143d
000002c0: 51b0 923c 81f1 35bd 4fd5 b9bd 66a7 0d3d
000002d0: 4558 f83d 09c9 85bd bad6 72be 38e3 843d
000002e0: 0686 68bc fa92 913d 3314 8b3d dd72 80bd
000002f0: d5c6 16be 39ce a33d 67af 873d 5565 97bd
00000300: c789 9a3d 4bf4 953c 8698 24be 2cda 883d
00000310: 3e5d e2bd 2b8b 78bb c73f fd3b c483 4c3d
00000320: 68b4 60be 9945 56be 02ff 763d 0053 3b3c
00000330: f083 8ebd 724e 8a3d d242 08be f0bb 5dbd
00000340: 9428 1fbd 29aa ecbd 76f9 0c3e 0e3b 55be
00000350: 2204 dcbd f62b 7a3d b41c c8bd 5e41 6d3e
00000360: f7e2 883d c717 e13d 5389 92bd 38b2 36be
00000370: 1bec e83c c44e a73e 1b3c 40bb ab49 01be
00000380: 977c 39bd 788f 7cbd fcd6 a83b 200a 6a3d
00000390: b2ee 45bb cbed 1a3e d568 ae3d 770f f3bd
000003a0: 87fa 94bc 9685 64bd f43f 95bc 75ea cdbd
000003b0: c95d 88be ee1c debc f88f bebd f82c 04bd
000003c0: 4c13 25be b714 873d 74c7 d7bd 50b3 bebd
000003d0: ce9a d3bd 18f6 3fbd d704 57bd 1291 95be
000003e0: 779e 113d 82b9 e33d 7f58 99bd 5b5f 813e
000003f0: 4aaf c23d 7101 8f3d a2be 0fbe d209 083e
-0.15649387 0.07666701 -0.011290134 -0.019547956 -0.15175338 -0.04350128 0.0006877101 0.052336924
-0.082910806 -0.08539549 0.20020422 0.14436072 0.05232845 -0.09089454 -0.001300786 0.10318223
0.10835547 -0.111356884 -0.10069517 -0.14083363 -0.039392427 0.061522048 0.11538459 -0.25547147
-0.44286147 -0.021966442 0.09690835 0.022766588 -0.2118799 -0.17831053 0.07458526 -0.057675894
-0.04432401 -0.068479784 0.05586724 -0.0017175155 0.01691731 -0.013754436 0.061544597 -0.11662499
-0.112064585 0.045182094 -0.17005558 -0.09170343 0.15338153 -0.23736814 -0.22077249 -0.14048333
-0.027120035 -0.1095391 -0.042053357 0.0057450435 -0.001845793 -0.034712184 -0.0908868 -0.093677856
0.21709445 0.1631238 0.036987185 -0.094335966 -0.28816327 -0.11232478 -0.19056995 -0.14473698
0.14234605 -0.019660644 -0.029272666 -0.0073143346 -0.07592665 -0.14246668 -0.08450318 0.06921643
0.102277175 0.008974694 -0.13337643 -0.034173194 -0.06937409 0.017444462 -0.03600205 0.09285126
-0.2181185 -0.15463641 0.15821894 0.053276587 -0.06974713 0.0086350655 -0.17134254 0.087359756
-0.052128464 0.10067766 -0.054032564 -0.15608707 0.027683463 -0.0031666718 -0.008669257 0.1622306
-0.1709791 -0.20871888 -0.058741193 0.04060356 0.025416568 -0.05674714 0.062374793 0.083956905
0.084932044 0.11868624 0.06738683 -0.13643706 -0.10865147 -0.1638392 -0.014973997 -0.15790898
-0.06918436 0.054103162 -0.025845945 -0.20165105 0.026519256 0.08919649 0.007892252 -0.3451493
0.08178659 0.10824519 -0.1603628 -0.28221473 -0.1510403 -0.12524025 -0.06994572 -0.1981074
-0.074383326 0.018334333 -0.0013078958 0.16033614 -0.11571702 -0.2451171 -0.119928375 -0.077585734
-0.017806403 -0.042160433 -0.05792034 -0.21464798 0.005948218 0.118774325 -0.2158958 0.123820215
0.098081484 0.15262073 0.006269251 -0.17850408 -0.10971261 -0.07586291 -0.03582953 -0.030752296
-0.16575944 0.063230805 -0.074856676 0.036232587 0.12625384 0.13642184 -0.078133024 -0.074234575
-0.23660102 -0.081330635 0.010877515 0.0033430883 -0.054491535 -0.022999935 -0.111977555 -0.06941183
-0.036284126 0.03006691 -0.021408679 -0.11618141 -0.015577546 0.004589713 0.08547867 0.03614818
0.01790634 -0.04441977 -0.090738885 0.03458347 0.12126211 -0.06532485 -0.23714724 0.06488651
-0.01419211 0.07108112 0.06790962 -0.062719084 -0.14724286 0.07998318 0.06625252 -0.073923744
0.0754581 0.018304965 -0.16073808 0.06682238 -0.11052941 -0.0037924747 0.00772855 0.04993035
-0.2194382 -0.20924987 0.06030179 0.011433363 -0.06958759 0.067532435 -0.1330674 -0.05413431
-0.038857058 -0.11555893 0.13767037 -0.20823309 -0.10742976 0.06107708 -0.097711 0.23169467
0.06683915 0.10990863 -0.07155099 -0.17841423 0.028432896 0.3267728 -0.00293327 -0.12625758
-0.045284834 -0.06166026 0.0051525813 0.057138562 -0.0030202088 0.15129773 0.08516089 -0.11868184
-0.018185867 -0.05579146 -0.018218972 -0.10054485 -0.26634052 -0.027113404 -0.093048036 -0.032269448
-0.16120642 0.06595748 -0.105360895 -0.09311545 -0.10332261 -0.046865553 -0.05249485 -0.29212242
0.035551514 0.11119367 -0.074875824 0.25268063 0.0950609 0.06982697 -0.14037564 0.13284996

bias f4 [64]
00000000: cae9 0c3d 2477 00be 084f d4bd b063 c33d
00000010: a756 b6bd 0506 523c 4933 33be 65ea cdbb
00000020: f038 473c 5695 173e 78b3 e43d 47d5 bfbd
00000030: d341 13bd 91a0 35be 0462 9c3b 000a 00bb
00000040: b476 66bd 9c09 1abd 0129 d83d 7a75 b8bc
00000050: 373d dd3d ad48 91bb a36a 73bd 45c1 9a3d
00000060: 25d2 95bc d4fc 893c 657c 63be e588 b6bc
00000070: bfee 143e da7c 12be 262e e23c 8154 e1bd
00000080: 9a67 00be f60b b5bd d29c d6bd c1f4 f83c
00000090: f821 003e 31b1 e0bc d59e 763c ef5d 3bbe
000000a0: 55c7 4abd 6fcc 32bd 4760 30bc 0734 cf3d
000000b0: a889 1fbe 4d8c 253e 3fb1 32bd 9b4e d2bc
000000c0: 70d7 5b3c cc8a d9bc 5f38 5f3c 35b6 363d
000000d0: db15 74bb aeff 2ebb 2da8 c4bd 03e0 81bc
000000e0: be9e 9a3b 1338 05be 397a a0bc c04f 87bd
000000f0: 89cd ae3c 21ef 513d b1ed 49be 0ac3 a9bd
0.034402646 -0.12545449 -0.103666365 0.09540498 -0.089032464 0.012818818 -0.17500032 -0.0062840455
0.012159571 0.14803061 0.111670434 -0.09366851 -0.035951447 -0.17737032 0.0047724266 -0.001953721
-0.056265548 -0.03760682 0.10554696 -0.022516955 0.108026914 -0.0044337125 -0.05942787 0.075563945
-0.018288681 0.01684419 -0.22215421 -0.022282073 0.145442 -0.1430544 0.027609896 -0.11002446
-0.12539521 -0.08840172 -0.1047913 0.030390145 0.12512958 -0.027428241 0.015052517 -0.18297552
-0.049506504 -0.043651994 -0.010765142 0.10117345 -0.15579855 0.16166802 -0.043626066 -0.025672248
0.0134180635 -0.026555441 0.01362428 0.04460736 -0.0037244472 -0.002670269 -0.096023895 -0.015853887
0.0047186306 -0.13009672 -0.01958953 -0.06607008 0.021338241 0.05125344 -0.19719578 -0.08289154

weight f4 [32, 64]
00000000: 23fb 09be 1708 36be 3020 f53d edfc 78bc
00000010: 6d37 383e fe83 2e3e f0c6 313e 590b 5d3d
00000020: f151 1d3e de5b 96b9 1a1d aa3d b4c1 55be
00000030: ec27 383e e637 883d 0a95 bbbd 60fe d2bb
00000040: a31e d43d 9f5c 2e3e 1c86 033e 5ecb 543e
00000050: f569 c43d ffa5 90be 6973 233e 3466 3ebd
00000060: a35d 033e 00bd 3b3e 478e 06be 27f5 c63c
00000070: 1bcb 773d dcfd 96be b22f b5bd 5625 45bc
00000080: 843a d83c 9094 0d3e d8a2 6b3e fe9e 18bd
00000090: 2831 b43d 2b44 fb3c 83cc e9bd 3596 33be
000000a0: 1b9a 9cbc d3e8 e63d 3a1f 09be fcce b9be
000000b0: 5a4e 0d3e eae3 9a3d dc9e 20be b17c 68bc
000000c0: d3e9 7cbd 7692 ae3d fa6d 17be 3da7 e1bd
000000d0: c3e9 2d3e 05dd 39be 1077 923e c1b9 af3d
000000e0: 34f5 853d 2e4a 90bd 5b66 e4bc 5d96 46be
000000f0: 44e1 19be 005c c3bc f16d b8bd ed4c a63d
00000100: 5678 573d d1e1 00bd 3b6e f43d 5491 8b3e
00000110: 4bd8 143e b35a 903d 059d e0bd 9a9b 5cbe
00000120: 796c 313d e213 a33b f214 3a3e 691f 433e
00000130: c715 303d 9c90 153e 3cbf 1a3e 27cd c0bd
00000140: ea67 8dbc 1ad4 58bc 592e c03d 2539 193e
00000150: 8b47 703d 65bd 9fbd ff1d 56be 8d09 e63c
00000160: b260 b63c 052e 70bc d768 d0bd 26b5 05be
00000170: 911d 2cbe eff0 62bd db0e 2dbe aea4 2c3e
00000180: 2344 1fbe 71c6 bfbd 183e 44be 8a7d 383e
00000190: 918f 023e d35c 6d3e 5230 b63e 31b9 bbbe
000001a0: dbe1 72bc b5f8 273e 9143 60be 9a69 5b3b
000001b0: b370 37be a757 753e 45ce 40bd 2f0d bcbd
000001c0: 8548 56be d7cb 0f3e a096 1d3c 616e 17be
000001d0: c0d4 733d db31 ee3d c240 703e c221 9fbd
000001e0: 6c82 1f3e ead9 2cbd bf1e 84bd fd8f 963d
000001f0: d021 733e 2576 a03c 9548 743d ae45 4abd
00000200: 1d86 113e 7abe 183e a867 12be d1e0 16bc
00000210: b46f e73d 04fa c53d 19cd dc3d 8c12 1d3e
00000220: e7c5 3b3c 44fb 843e cbcb 9bbe dc0f ae3d
00000230: 1445 bc3d 68c5 40bd ddf5 babd 8751 433e
00000240: be66 0cbe 6afd ef3d 42dd c8bd b429 a6bd
00000250: db0e 123d e1f1 c93d 998a fc3c df1e 39be
00000260: 774b 83be 173c bebd 962a 4d3e ec65 9cbe
00000270: dc3c b33d 322a a43e 4e8c 6b3e 79be c73c
00000280: 918c 20be bea5 b9bc aa4c b8bd 6757 0ebe
00000290: 333c 7fba b325 67be 5c6d b73d 6c2f df3d
000002a0: 89d7 9b3c 7805 bb3c b2bc 1e3e 6b73 9ebd
000002b0: 9ead afbc 1480 aebd f0a8 c23d fb2a 883d
000002c0: 4b53 4a3d 4a4e 9d3e 6032 7b3d b4df a03d
000002d0: 135d 64be fa3a 4d3d e632 87be 1f5a 323e
000002e0: e5cb 103e df5f eabd 14c4 cdbc 1219 6f3d
000002f0: 5df1 3c3e 984c 23be 9966 d73d 918e 0abe
00000300: b84e 2ebd 3157 9d3d 44eb 49be 04cc 3abe
00000310: 6c08 8a3b 21db b53c 2d96 80be f1da 753e
00000320: eab8 763d dd3f 4e3e 91d4 4dbe 7ae0 09bc
00000330: cacd 3c3e b74f f4bc 9503 6cbe 41e9 493e
00000340: 6797 21be e376 e6bc d509 b03c 8a3a 64be
00000350: 8bbb b9bd a306 8e3b e5c7 2ebe c6f3 463e
00000360: 97f9 5abe 2e21 1fbe a058 283e 1c13 013e
00000370: 44a5 493e 7405 583e fe2c afbd 8c06 6ebc
00000380: 0be5 22be 0ed1 acbd 41ae 5e3c 1a2c c9be
00000390: 6ad5 803d 65fb 86be 57ad e3bc e05f 5a3d
000003a0: 5624 21bc a631 0abe f98b adbc 805e a7bd
000003b0: 8762 4ebe ed46 51bd ec86 9c3d c257 a1bd
000003c0: 6005 a5b6 cc54 93be 94fb 71bd cf42 f83d
000003d0: 890c 81be 7a10 493c 6b01 2bbc a571 87bd
000003e0: 0b5d 68be 098d 2d3c 81be 05be 80fe 3abe
000003f0: ff01 febd da32 9fbe 5b9b c73c 5acd fa3d
-0.13474707 -0.17776524 0.1196903 -0.015197021 0.17989893 0.17042539 0.17361045 0.0539659
0.1536329 -0.00028678676 0.08306332 -0.20874673 0.17983979 0.06651287 -0.09159286 -0.0064390153
0.10357406 0.1702752 0.12844127 0.20780703 0.09590522 -0.28251645 0.15961994 -0.046484187
0.12828688 0.18333817 -0.13140212 0.02428682 0.06049643 -0.29490554 -0.08846988 -0.012032827
0.02639509 0.13826203 0.23011339 -0.037261 0.08798438 0.030672153 -0.11415961 -0.17537768
-0.019116452 0.112748764 -0.13390818 -0.3629073 0.1379942 0.075630024 -0.156856 -0.014189885
-0.06174643 0.08524029 -0.14788046 -0.11018226 0.16983704 -0.18150719 0.28606462 0.085803516
0.065409094 -0.07045399 -0.027880838 -0.19393297 -0.15027338 -0.02384758 -0.09005345 0.08120141
0.052604996 -0.031465355 0.11935087 0.27259314 0.14535634 0.070485495 -0.10967449 -0.21543732
0.04331634 0.0049767355 0.18172053 0.19054951 0.04298952 0.14605945 0.15112013 -0.0941413
-0.017261464 -0.013234163 0.0938384 0.14963205 0.05866198 -0.07799796 -0.2090988 0.028080726
0.022262905 -0.014659409 -0.101762466 -0.13057384 -0.16808154 -0.055405553 -0.16900198 0.16859695
-0.15553336 -0.093640216 -0.19164312 0.1801664 0.12750079 0.23179941 0.3558374 -0.36664727
-0.014824356 0.16403468 -0.21900775 0.0033479691 -0.17914085 0.23959218 -0.047071714 -0.09182202
-0.20926102 0.14042602 0.009618431 -0.147882 0.059529066 0.11630603 0.23462203 -0.07770111
0.15577096 -0.042200007 -0.06451177 0.07351682 0.23743367 0.019587586 0.059639532 -0.049382858
0.14211316 0.14916411 -0.14297354 -0.009208874 0.113006026 0.09666827 0.10781307 0.15339106
0.011460758 0.2597295 -0.3042892 0.08499119 0.09192863 -0.04706326 -0.09128926 0.19074069
-0.13711068 0.11718257 -0.098078266 -0.08113423 0.0356587 0.09860588 0.030827807 -0.18078183
-0.25643513 -0.09288805 0.20035776 -0.3054651 0.087518424 0.32063442 0.2300274 0.024382817
-0.15678622 -0.02266204 -0.089989975 -0.13900529 -0.00097364484 -0.22572975 0.089564055 0.10897717
0.019023674 0.022829756 0.15501669 -0.07736858 -0.021445092 -0.08520523 0.095048785 0.06648823
0.04939584 0.30723792 0.06132734 0.07855168 -0.2230113 0.050105073 -0.2640602 0.17417191
0.1414028 -0.11444067 -0.025117911 0.05837352 0.18451448 -0.15947187 0.10517616 -0.13530947
-0.04255554 0.07682646 -0.19718653 -0.18241888 0.0042124297 0.022199215 -0.25114575 0.24009301
0.06023494 0.2014155 -0.20100619 -0.008415336 0.18437877 -0.029823167 -0.23048241 0.19717886
-0.15780412 -0.028132861 0.021489063 -0.22287956 -0.09068974 0.0043342873 -0.17068441 0.1942893
-0.21384273 -0.15540001 0.16440058 0.12604946 0.1969195 0.2109583 -0.085535035 -0.014527928
-0.15907685 -0.084383115 0.01359135 -0.3929146 0.062907055 -0.26363674 -0.027792616 0.05331409
-0.009835323 -0.13495502 -0.021184908 -0.08172321 -0.20154773 -0.05109303 0.07642922 -0.078780666
-4.918009e-06 -0.28775632 -0.059077814 0.12122118 -0.25204876 0.012271995 -0.01043735 -0.06613473
-0.22691743 0.010592707 -0.13060953 -0.18261147 -0.124027245 -0.31093484 0.024366071 0.12246199

bias f4 [32]
00000000: 62b8 dd3d 7dba 81bc e24c 31bd 5592 36bd
00000010: 145b 6bba ebfe 13be e0bf fabc cc25 8a3c
00000020: e1d2 0f3d 27dd ad3d db7d 263e 7b7e cc3d
00000030: be61 143e 77df be3d ec8d f23d 3667 d13d
00000040: 140d 2bbe f149 c4bd 5d67 723d cc21 763e
00000050: 59dc 69bc 3b8f b93d 5f36 c43c 1ae8 733e
00000060: ae7f 973d 8562 213e 95bc eebd f0bb 84bc
00000070: 2df3 59bd 72d6 fb3d 79a6 bb3d 1460 de3c
0.10826184 -0.015835995 -0.04328621 -0.044573147 -0.000897811 -0.14452712 -0.030609071 0.016863726
0.03511322 0.08489447 0.16258948 0.09985062 0.1449041 0.09319966 0.11843476 0.10224764
-0.16704208 -0.09584416 0.059180606 0.2403633 -0.014273726 0.09060522 0.023951707 0.23819008
0.073974 0.15760238 -0.11657063 -0.016202897 -0.053210426 0.122967616 0.091626115 0.027145423

weight f4 [3, 32]
00000000: ed54 13be 9352 5dbe 788c 303e 5d6f 413e
00000010: a67b 44be 6129 49be 86b0 5cbe ecd2 66be
00000020: 68de 10be 3433 7abd a2b4 0b3d 1471 863d
00000030: f4e7 933e d216 0f3e 160d a83c 4648 0cbe
00000040: 7097 543d 0c37 85ba caaa 05be 61b6 463e
00000050: 1c62 4abe 2e40 ad3d 8f6a d5be 18de b53e
00000060: 2b89 06be 9653 4b3e 488a 71bd e415 7d3d
00000070: 3da3 5cbe 8d24 c73d 2b12 6cbe d440 003e
00000080: 3b21 83be 05b1 a93d d974 4e3d 2310 e43d
00000090: 6a24 4a3c 6798 61bc d2c7 193e 508b fb3d
000000a0: 2111 5c3d 9485 fabd 0e93 ef3d 3f9c 323c
000000b0: 25bf 26be e3dd fb3d ade1 88be 349e 86be
000000c0: f2ad 91bd 116d 9abe 79c7 023e 6809 90be
000000d0: 18bc 3a3e de39 563e 786d 133e 28b9 9abe
000000e0: b6c5 6dbe a6b3 48be 6552 4c3e 11be b8be
000000f0: 9335 103e 8ad3 84be 4d20 363e e606 bbbd
00000100: eb2a 953e 0445 a2bd 5f77 70be a48b 34be
00000110: fa08 3f3e 35ab 443e e52b 8c3d 2a6d 333d
00000120: d895 913e 5998 403e 62f5 c8be ccc7 72be
00000130: b0d2 9fbc 097e c6be 62c6 7a3e ec0b 913d
00000140: ee4b 5a3d f178 613e b412 2d3e af2b 22bd
00000150: 4b6e b2bd b9a8 89be b562 693d 03b5 2b3c
00000160: 5c6b 873e 477f bf3d ded7 9a3d 09b2 8cbc
00000170: e6ed fab9 ebdd aa3d 48cb 4d3d a926 ce3d
-0.14387865 -0.21613531 0.17241085 0.18890138 -0.19187793 -0.19644691 -0.21551713 -0.22541398
-0.14147341 -0.061083987 0.03410781 0.06564537 0.28887904 0.13973549 0.020514052 -0.13699445
0.051902235 -0.00101635 -0.13053432 0.1940551 -0.19763988 0.08459507 -0.4168286 0.35521007
-0.13138263 0.19856104 -0.058969766 0.061788455 -0.21546645 0.097237684 -0.23053806 0.1252473
-0.2561129 0.08285717 0.050404403 0.1113589 0.012337783 -0.013769246 0.15017632 0.12282431
0.053727273 -0.12232509 0.1169797 0.01090151 -0.16283853 0.12298181 -0.26734677 -0.26292574
-0.071132556 -0.30161336 0.12771405 -0.28132176 0.18235815 0.20920512 0.14397228 -0.30219388
-0.23219952 -0.1959978 0.19953306 -0.3608251 0.14082937 -0.25942641 0.1778576 -0.09132175
0.29134306 -0.0792332 -0.23483036 -0.17631394 0.18655768 0.19205935 0.0684431 0.04380528
0.28434634 0.18808116 -0.39249712 -0.23709029 -0.019509643 -0.38768032 0.2448974 0.07082352
0.05329507 0.22018792 0.16901666 -0.03959244 -0.08712443 -0.26886538 0.0569789 0.010480168
0.26449096 0.09350448 0.07560705 -0.017174738 -0.00047860964 0.08343109 0.050242692 0.100659676

bias f4 [3]
00000000: 45c6 ab3d 9135 f5bd be28 033e
0.08387426 -0.119731076 0.1280851

weight f4 [32, 64]
00000000: 5899 73bd d70a 87bd 8d9f e2bd 972d cabd
00000010: 3545 d5bb 1a40 debc 5932 f1bd c23f a2bd
00000020: 5c4d c7bc 937b b8bc 1cd3 0dbe 504a 01be
00000030: 64b2 bb3d fdba 963d d3d5 a6bd 22ad e83d
00000040: 638b 56be ed56 9d3d ade0 adbd 2255 61be
00000050: 4e57 5bbe b7a8 513d 5a18 103d 0672 663d
00000060: e08f dcbc aaed bbbd 7c12 7a3e 670c 503e
00000070: 911b 983c 415e 60be 2746 7dbd 5bc5 203d
00000080: 0d29 0a3e 5b88 fd3a aec9 063e 93e9 b93d
00000090: 845b 973b c257 853d ed58 0b3e 1751 9bbe
000000a0: fe39 64be 743c 5abd d68d c9bc 1117 103d
000000b0: 9624 20be d376 613d ef53 8f3d 4dba 30be
000000c0: 1c8a 91bd 789c cebc 1564 8c3c 1870 1ebd
000000d0: 5b70 753d fe53 9bbc 247e fc3d b9b3 693e
000000e0: 8865 2c3e 769c b4be 9f97 1d3e fb59 a3be
000000f0: bdaa 643e ad2e 693e e907 d43c fed4 853e
00000100: edd3 a0bc 34a7 c9bd f2a4 c8bc 11ea c03d
00000110: 9ead 3b3e 428a 933d ff4f 6cbd 564a 4abe
00000120: 35e7 c93c 8ad2 86bd ea1d 61bc 3b88 953d
00000130: 3cae c63c 5540 343d bb95 283e 0621 d5be
00000140: 7cc3 b5bd 2c8a a4bd b013 88be cb42 1e3d
00000150: bdc6 a83d 9293 bbbd a2b6 2e3d ddf9 ad3d
00000160: b4c0 cabe d007 c8bc dcfe 273e 1e63 d83d
00000170: 48d2 06be 36ac b63c 3bb1 83be fe5d 74be
00000180: 9c32 d3be e182 21be 2ea6 653e e30b ea3d
00000190: 2101 4f3e 7a41 b5bd 66e6 f13a a4e1 3cbe
000001a0: a032 cc3d 023c a1be fb62 d9be 803b 30b7
000001b0: fcb9 a13d 58fa a23b 3e03 00be 981c 00be
000001c0: 3231 7ebd 22af 373d 181f 093d 0c4c 6dbd
000001d0: 183b bc3d 239f 7ebb 0537 f73d 6358 99be
000001e0: 9fab ccbd 8f3f 6dbb 5258 1cbd 19ea 19be
000001f0: bb4c 1d3e 09a9 733e 6883 803d 3b5d 38be
00000200: c4ce 093d 2ec7 763d 0635 38bd 5f67 cb3d
00000210: ee79 d83c 3a28 70bd bd31 c6bd 56bc e83c
00000220: 8a7f 0dbe c9fb 3dbe ae6a 953d c0d5 ca3d
00000230: fdf6 8fbd 8986 813c 70a1 e3bd cc45 993b
00000240: 3afd 6abd ec44 40be d933 3ebc 5bc1 0e3d
00000250: 124f 0f3d 6bb4 54be af93 8abc 91ba 0dbd
00000260: 2710 1938 03fc c53d 4157 d43c bd53 1cbe
00000270: c9be 01bd c2c6 f7bd 2e63 8bbd 6ac3 943d
00000280: becb 34bd cd89 5a3d d5f3 afbb 1c18 a9bd
00000290: 4b49 00be 240c c6bc 7480 04be 0559 1fbe
000002a0: 000f 3abe b218 7a3c fc88 33be d3f0 c2bd
000002b0: 62b1 d63c 4cb3 593c 1c1d 39be b4c7 6a3c
000002c0: bea9 8abd 29b3 f03d a176 ccbd a978 4abe
000002d0: 529c 9b3d 4eae 68bd 45f8 8ebd 120b 90bd
000002e0: b3de babd d8ad b73b e3bc 3ebe a941 a7bd
000002f0: 3523 ab3d 393e 4bbe 29bf 7a3d 890d 0c3d
00000300: 7ca4 513d 9dc0 97bd 1382 21bd 70a1 dabc
00000310: f8be 10be 5d42 1d3d d798 bb3d 632f 89bd
00000320: c6c1 cfbd 640d 44bc e689 00be c843 f13d
00000330: 8780 e9bd 43a6 14bd 5268 08bd 5487 943c
00000340: d410 babd b64d a9bd 3f36 2dbe 197e 613e
00000350: 3d01 64be e6b6 c7bd 2686 10bd 6a65 60bd
00000360: f0f6 b9bd 0960 55be 61bb 57bd e953 903c
00000370: afb0 3abe f473 4bbd b583 67bc 4314 01be
00000380: 6af2 6abe 9953 18be 6bb0 e23b 3d7d 96bc
00000390: c267 163d 2cc1 e93d 52e8 11bd e87b 87bd
000003a0: 8e20 d9bd 98ee 643d bcd1 b8bc f7f1 8bbd
000003b0: 226d 97bd 2291 2ebe bc54 18bd c942 7abd
000003c0: 9e38 97bd 6101 c93a 97e3 1c3d 3919 06be
000003d0: 4be2 99bc deff 0abe 26fd afbd b05b a83c
000003e0: 21ae 2bbe 9ec4 c13c ada2 06bd 4f85 97be
000003f0: 0f39 fdbb 84b3 f63b 42cb 06bb 01d2 8abd
-0.059472412 -0.065938644 -0.11065588 -0.09871977 -0.0065084943 -0.027130175 -0.11777181 -0.07922317
-0.02432888 -0.022519862 -0.13850063 -0.12626004 0.09164885 0.07359884 -0.081462525 0.113611475
-0.2095161 0.076825954 -0.08490119 -0.22005132 -0.21420023 0.05118629 0.035179473 0.056261085
-0.026924074 -0.0917619 0.24421114 0.20317231 0.018567832 -0.21910955 -0.06183448 0.039250713
0.13492222 0.0019343005 0.13162872 0.09077754 0.004619064 0.06510879 0.13608141 -0.30335304
-0.22287747 -0.05328031 -0.024603765 0.035178248 -0.15638956 0.05504496 0.06998431 -0.17258568
-0.071064204 -0.025221094 0.017137567 -0.03868112 0.059921604 -0.018960949 0.12328747 0.22822465
0.16835606 -0.3527562 0.1538987 -0.31904587 0.22330756 0.22771712 0.025882678 0.26139063
-0.019632304 -0.098463446 -0.024492715 0.094196446 0.18327948 0.07204105 -0.057693478 -0.1975492
0.02464638 -0.06583126 -0.013740042 0.073013745 0.024253003 0.044006664 0.16463368 -0.41626757
-0.08875176 -0.08034167 -0.2657752 0.038637917 0.08241031 -0.09159006 0.04265464 0.08494923
-0.39600146 -0.024417788 0.16405815 0.1056578 -0.13166153 0.022298913 -0.25721154 -0.2386398
-0.4124955 -0.15772583 0.22426674 0.114280485 0.20215274 -0.08850379 0.0018455505 -0.1844545
0.099705935 -0.31491095 -0.4245833 -1.0504271e-05 0.07896802 0.004973691 -0.12501237 -0.12510908
-0.062058635 0.044844754 0.03347692 -0.057933852 0.09190959 -0.0038852177 0.12071041 -0.29950246
-0.099936716 -0.0036201214 -0.038170166 -0.15030707 0.15361302 0.2379495 0.06275064 -0.18004315
0.033644453 0.060248546 -0.044972442 0.09931826 0.026425328 -0.058632113 -0.096774556 0.028410118
-0.13818184 -0.1855308 0.07295738 0.09904051 -0.07029531 0.015811222 -0.11114776 0.00467751
-0.057370402 -0.18776292 -0.011609041 0.034852367 0.034987517 -0.20771949 -0.016916124 -0.03460175
3.6493086e-05 0.09667208 0.025920512 -0.15266319 -0.031676088 -0.12098457 -0.068060264 0.07263835
-0.044139616 0.053354073 -0.005369643 -0.082565516 -0.12527959 -0.024175711 -0.12939626 -0.15561302
-0.18169785 0.015264677 -0.17532724 -0.0951859 0.02620763 0.013287377 -0.1807751 0.0143298395
-0.06770657 0.11752922 -0.09983564 -0.1977259 0.07598175 -0.056806855 -0.069809474 -0.070333615
-0.09124508 0.0056054406 -0.18626742 -0.081668206 0.083563246 -0.19847955 0.06121746 0.034192596
0.051182255 -0.07409785 -0.03943069 -0.026688308 -0.14135349 0.038393367 0.09160011 -0.066984914
-0.10144381 -0.011966083 -0.12552604 0.11780506 -0.11401468 -0.036291372 -0.033302613 0.018130936
-0.09085241 -0.08266775 -0.16915224 0.22020759 -0.22266097 -0.09751682 -0.035284184 -0.054784216
-0.09080303 -0.20837416 -0.052668933 0.017618136 -0.18231462 -0.04967113 -0.0141305225 -0.12605385
-0.22944036 -0.1487564 0.0069180033 -0.018370265 0.036720045 0.11413798 -0.03562195 -0.0661543
-0.106019124 0.055891603 -0.022560947 -0.068332605 -0.07393862 -0.17047551 -0.037190184 -0.061098848
-0.07383846 0.0015335494 0.038302984 -0.13095559 -0.018784663 -0.13574168 -0.08593206 0.020551533
-0.16765644 0.023653325 -0.032869983 -0.29593894 -0.007727749 0.007528724 -0.0020567928 -0.06778336

bias f4 [32]
00000000: 33d4 893d 4659 15be 98ef 29be d5ca 3fbd
00000010: 51ef 113d 4807 85bc e534 d7be 225b 18be
00000020: ae7e dd3d 66c5 05be e1ff 753e 385e 8abe
00000030: b1f8 c33d 14e8 6dbd db1c 553e 0d5f 023e
00000040: 032f d13c dc67 14be 3132 11bd 5a6f 6ebe
00000050: 35c8 043f 2b49 3c3e 1678 56be 7812 25be
00000060: 9909 0c3e 2f7c 5fbe ccc6 48be 18f2 23be
00000070: ba59 933d 00d3 1cbe d219 da3d 114f 5abd
0.06729927 -0.14584836 -0.16595304 -0.046824295 0.03562862 -0.016238824 -0.42032543 -0.14878514
0.10815178 -0.13063583 0.24023391 -0.27025008 0.095689185 -0.058082655 0.20811789 0.12731571
0.025535112 -0.14492744 -0.035448257 -0.23284665 0.5186799 0.18387286 -0.20944247 -0.16120327
0.13675536 -0.21824716 -0.19607085 -0.1601032 0.07194848 -0.15314865 0.10649456 -0.05329806

weight f4 [1, 32]
00000000: f2eb a13c 2d81 a0bd 4d82 4ebd b0b1 9f3d
00000010: b8a1 143e 5414 773d 0157 ccbd 732f 2fbc
00000020: 12e0 833c bdbe 3fbd e480 233d 4378 1a3d
00000030: d05c 563d f85b 933d 76f0 4d3d 7ccc a23d
00000040: ec68 5a3d 6b7e 713d d038 96bd be7f 86bd
00000050: b321 9b3d f787 ad3d ac51 18bd ebea a1bc
00000060: 2b01 f5bd 7a87 3a3d 0157 3c3c b293 cfbd
00000070: 4318 3d3d 3a16 7c3c 2b5c 9a3d b07e fd3a
0.019765828 -0.07837138 -0.050417233 0.07797563 0.14514816 0.06032212 -0.09977532 -0.010692465
0.016098056 -0.04681276 0.03991784 0.037712347 0.052334607 0.07195276 0.05027815 0.079491585
0.053322718 0.058958452 -0.07335055 -0.06567334 0.07574787 0.08473199 -0.037187263 -0.019765338
-0.119631134 0.045539357 0.011495353 -0.101355925 0.046165716 0.015386159 0.07537111 0.0019340124
